CNN-model.pkl (torch_old, 116922 bytes, 6 tensors)

cnn1.weight f4 [16, 1, 5, 5]
00000000: 60ba 87be edf2 66be b2b9 87ba 303c 843e
00000010: aab9 af3e 7f66 d3bd 1bca 9d3d 77f5 5c3e
00000020: c808 b93e dd04 403e 85b6 783e 19f6 933e
00000030: b88a ee3d 73af a03e adbc efbc 4440 c53d
00000040: 885c c93d fe22 51be 9e88 49be eff5 7f3c
00000050: 1557 54be 2cb3 4bbd 8ba7 3bbe 4bfc 45be
00000060: b624 85bd 5bae abbd 4676 c0bd ec59 5abc
00000070: aa35 43be 5cae 393d e9aa 0bbd 9afd b0bd
00000080: 0d8f 03bd 3002 503d 8e35 dabd f7c1 4cbd
00000090: 1c13 38be 1bca afbd 10a2 4abb ae59 c33c
000000a0: d633 9a3d cf77 85bd ed41 253e b9b6 32be
000000b0: acd5 5e3e 2586 9c3c 13cd 903b f2ea 40be
000000c0: 7ba2 d8bd 66a3 1a3e 74f6 12be 0761 01be
000000d0: b042 fcbd b84b 31bd df04 3fbd 70f0 17be
000000e0: e19d e6bd 19e3 03bd 5051 52be d9c6 b6bc
000000f0: a4a7 33be 5089 f8bb f582 f1bd 2d76 28be
00000100: 1245 c33d 8e02 bd3c ecec ad3d d888 60bd
00000110: 96f0 1a3e 6845 08be 89a7 88bd ebf7 68bd
00000120: dfeb 5abe 5fa3 d5bd 0fc4 3cbe 3609 963d
00000130: 08a4 853e 91f4 183e 643f 9e3d f803 883e
00000140: eb37 073e 8382 a03e 3c1b 423e a1ed 8a3d
00000150: 1100 463e dd6a 95bc 850c 223d f94c ccbd
00000160: 7049 36be 97c8 33be bd8e bebd f7b1 43be
00000170: 5ea8 0ebe 4621 91bc 933c 353c c338 e63d
00000180: fc6b a23c 0cc4 87be 503c 9fbd 22b5 8c3c
00000190: 7136 233b 662c d43d b2fe 183e e7d1 013f
000001a0: 2985 593e b867 ccbd ac75 d63e d72a f13e
000001b0: 1892 493f 8993 ad3e adc7 61bd cbdc e33e
000001c0: d0fc 163f 2055 2f3f 49ad 3e3f 4740 88be
000001d0: 0f06 dabc 4888 b83e 4a05 f63e 272b ff3e
000001e0: d4dc a9be c50b 58be b9f6 9d3d a907 853e
000001f0: 0af4 013e b0c1 e2bc f35a 573e 25e3 003e
00000200: 0076 d3bc eb6b 1dbe 38a5 753d 9b62 013e
00000210: 5f4a 39be 4c7c 2dbd 5322 b83d c02d 523d
00000220: 141a 783e ad17 56bd 473d 36be c732 fcbd
00000230: a9e2 39bd 6b90 94bc 62d8 3abe 4413 863d
00000240: 1c91 563d aafc 6d3e 7da4 d13d 62f4 193d
00000250: 3bfa 1bbe dcd6 debd 314d 02be abb9 12be
00000260: 7f87 023e 97eb 93bd b5f3 69be 4757 993e
00000270: 704a 0f3e 360e bc3e 2333 053d c905 08be
00000280: c1ef eb3e bec1 203f 3725 923e 437c 9a3e
00000290: 501b 6b3d 0ea0 a13e bced a63e def6 053f
000002a0: fa5a ab3e bab4 233d cc4a 203d 33e3 c73e
000002b0: 0c9e 913e 65a4 9f3d 4f16 70be 0643 7f3e
000002c0: d3a3 6a3e 2f2f f83d 79e2 e9bd 8460 5fbc
000002d0: e2ea 873d a6e0 2fbd b279 c53c 38bb 793e
000002e0: 9b5a 043c f5e6 723d dd76 193e 0c35 b7bd
000002f0: 5fbc d63d 4e7a e13d b19d 5ebd c675 803c
00000300: 3ee7 06be 5a1f 2dbd 4d42 79bd 27d3 7ebe
00000310: aa38 90bc 9ea8 da3d 9af8 dfbd f261 3b3d
00000320: 4744 2b3e 7bf4 2cbd 03dd 5ebb 7816 f53d
00000330: 02fc cebd 1a0c b6bd 3b4c 553e 64ef 1a3e
00000340: 7465 9b3c 1140 823e 9431 4f3e 0b3d 7f3d
00000350: 484e 09bd d9ee a0bd 95e1 0f3e bef5 cdbd
00000360: c610 963d 8e7f b6bd 787c e8bd 6275 b5bd
00000370: ead9 213e f014 edbd e5a2 6a3b 287c 6c3c
00000380: 7595 2bbe 9d49 46bd 3f59 af3d cc47 973e
00000390: fe5b 973e 06ad 173e cfd5 bb3d 8936 dc3e
000003a0: aa5b 3a3f c40f 4a3f 18cf 613e abd0 d43e
000003b0: 5c88 003f 4fef 733f 386a 3c3f 34cd d33e
000003c0: 158b dd3c 554e 2f3f 8d2b 443f 288a 863e
000003d0: dd5d 383e c8b5 2cbe f6f0 8b3e 74e7 af3d
000003e0: 18ce 8ebd 1e78 57be 3731 3dbe 27cd bd3c
000003f0: 0408 2dbe 0596 5a3c 2cab 4bbd 5002 88bd
-0.2650938 -0.22553606 -0.0010355024 0.2582717 0.34321338 -0.10322284 0.07704564 0.21578012
0.36139512 0.18751855 0.24288376 0.28898695 0.11647552 0.31383857 -0.029264772 0.09631398
0.09832102 -0.20423505 -0.19681022 0.0156226 -0.20736344 -0.04973142 -0.18325631 -0.19334523
-0.06501143 -0.08382865 -0.09397559 -0.013327103 -0.1906344 0.045332298 -0.03409854 -0.08642121
-0.032118846 0.050783336 -0.10654746 -0.049989667 -0.1797604 -0.085834704 -0.003091935 0.023846474
0.07529418 -0.06516992 0.1613843 -0.17452516 0.21761197 0.019106934 0.004418978 -0.18839625
-0.10577866 0.15101394 -0.14351827 -0.12634669 -0.12317407 -0.0432851 -0.046635505 -0.14837813
-0.11260582 -0.032199 -0.20538831 -0.022311615 -0.17544419 -0.0075847283 -0.11792556 -0.1645133
0.095346585 0.023072507 0.08492455 -0.054818004 0.15130839 -0.13307726 -0.0667258 -0.056877058
-0.2137904 -0.10431551 -0.18434165 0.073259756 0.26101708 0.14937045 0.077269346 0.26565528
0.13204925 0.31349573 0.18955702 0.06783605 0.19335963 -0.018239433 0.03956272 -0.09975619
-0.17801452 -0.17556988 -0.09304569 -0.19110857 -0.13931414 -0.017716061 0.011061805 0.11241295
0.019826882 -0.2651676 -0.077751756 0.017176215 0.0024904276 0.10360031 0.14940909 0.5071091
0.21242203 -0.0998072 0.41886652 0.47102997 0.78738546 0.33901623 -0.055122066 0.4450439
0.5897951 0.68489265 0.7448316 -0.2661154 -0.026614217 0.36041474 0.4805091 0.4983761
-0.3317629 -0.2109824 0.07713074 0.25982407 0.1269075 -0.027680248 0.21030788 0.12586649
-0.025813103 -0.15373199 0.059972018 0.12635271 -0.18094777 -0.042354867 0.08990922 0.05131316
0.24228698 -0.052268673 -0.17796813 -0.123143725 -0.045382176 -0.01813527 -0.18246606 0.065466434
0.05238448 0.23240915 0.10236452 0.037586577 -0.15232174 -0.10880825 -0.12724759 -0.14328639
0.12747 -0.072226696 -0.22846873 0.299494 0.1399324 0.36729592 0.03251947 -0.13283457
0.46081355 0.6279563 0.28544018 0.3017293 0.057399094 0.31567425 0.32603252 0.52329814
0.33467847 0.039967276 0.03913383 0.39040527 0.28440893 0.07795028 -0.2344601 0.24927911
0.22914056 0.121183746 -0.11420149 -0.013633851 0.06636597 -0.04293885 0.02410588 0.24387825
0.008078243 0.05930229 0.14986749 -0.08945665 0.10485148 0.11009656 -0.054349605 0.015681159
-0.1317415 -0.042266227 -0.060854245 -0.24885236 -0.017605145 0.106766924 -0.10936089 0.045747705
0.16725264 -0.042225342 -0.0034006245 0.11967176 -0.101066604 -0.08889027 0.20829861 0.15130383
0.018969275 0.25439504 0.20233756 0.062314074 -0.03352192 -0.078580566 0.14050896 -0.10056637
0.07327418 -0.08911048 -0.113518655 -0.088602796 0.15805784 -0.11576259 0.003580266 0.014433898
-0.16756232 -0.048410047 0.08561944 0.29546964 0.29562372 0.14812097 0.0917164 0.43010357
0.7279612 0.78930306 0.22051656 0.4156545 0.5020807 0.9528703 0.73599577 0.41367495
0.027043859 0.684789 0.76628953 0.2627728 0.18004556 -0.16866219 0.27332276 0.08589068
-0.06972903 -0.21041915 -0.18475805 0.023169113 -0.16897589 0.0133414315 -0.04972379 -0.06641066

cnn1.bias f4 [16]
00000000: 0f09 2a3d 1e06 b7bb 8f6a b43e ac63 103e
00000010: 9660 2a3b 040e 20be 454e 813d 2d92 413e
00000020: 7962 68bc f587 8c3b 2d9c a5bd 671a 823e
00000030: e820 033e e545 09be ffe6 a73e 4415 80bd
0.041512545 -0.005585446 0.35237548 0.14100522 0.002599751 -0.15630347 0.06313757 0.18903418
-0.014183634 0.0042886683 -0.08086429 0.25410768 0.12805521 -0.13405569 0.32793424 -0.06254056

cnn2.weight f4 [32, 16, 5, 5]
00000000: 1b25 473d da64 99ba 7b73 b53b 8ec1 3f3d
00000010: f399 79bc d714 013d 8326 8fbc bb9d f8bc
00000020: 2c60 5fbd ade2 803c 92e2 633d a495 13bc
00000030: 6177 71bd 1636 123b baa1 cd3d f6b5 70bd
00000040: 38e4 3fbd 8d11 473d 33ee 4e3d 7ccd d43c
00000050: 1589 22bd 67e6 2c3d 725b 333d 5f46 b33c
00000060: 2315 5fbd 85c0 443d 9f9d 03bc f875 d83c
00000070: 25a7 edbc d2d2 5c3d 60ef 33bc c953 f1bb
00000080: 850f 07bd 3dce 163d 8a9a 67ba 2387 bc3c
00000090: 3550 483d be10 aa3c 178e 073a f0dd 37bd
000000a0: b131 183b 3bbb f33b 0351 92bc 0231 e23c
000000b0: ccba 133d f1ad 223c 8d7a ffbc af15 0e3d
000000c0: 4306 40bd 7d16 c4bc 8c2c aabc 995c 5a3a
000000d0: f667 433d d109 923d 13f9 e6bc fce8 44bd
000000e0: 66fc 0c3c 8747 7d3d cdc3 023d a615 103d
000000f0: 8077 683c 1353 ce3c 09a1 a63b 4ca4 1b3d
00000100: eb3b 753c e7fb 983c c509 44bd 1236 b43b
00000110: c38c b5bb 0865 7ebd e5bc 77bc 93e6 fdbc
00000120: 3baa 1ebd cf61 56bd 81c5 9d3c b834 8abc
00000130: 6052 2f3d c5ea b93c 0f01 183d a63e 263d
00000140: e172 90bc 1bd6 373d d1ce aebb 22a8 56bd
00000150: 7f1f 1b3c c9df 853d f0f4 8abc 6483 41bd
00000160: fe74 30bd f402 153d 427b 443d 3c9b edbc
00000170: b256 a8bd a16a 223d 08ed 183d aef8 3dbc
00000180: 62a9 20bd 8fae 673c ef47 2d3c e407 50bd
00000190: 5949 a63d a067 a33d c63c e9bd 3680 3bbb
000001a0: e35a 083e b742 a83d b3eb 1ebd 7624 3dbe
000001b0: 402c a8bd 3a0f b53c de1a 53bd a322 fdbd
000001c0: 65ea b8bd 8d75 ea3c 1724 3bbb a7bc 9abd
000001d0: f331 bebd 68c9 fb3c 466c 2c3d 0a78 413c
000001e0: dfc6 25bd c9ad 563d 5fa4 983c a663 5cbc
000001f0: 5486 68bd 7bad 123d 99f1 983c ea4f e7bc
00000200: 3e99 44bd 4519 853c 2921 cd3b 71aa 0ebd
00000210: 9e11 8f3c 4c53 303d d4af 403d aed0 0dbc
00000220: 1089 ea3a 3903 67bc 2aa2 353d dbef d0bc
00000230: c64b 033d d8c8 ad3c 3988 4b3d 8cc1 81bc
00000240: a487 8f3c 4b85 ac39 86dd b5bc 5904 083d
00000250: aac2 11bc 1eb2 e03b 5d03 a43d 169e 493d
00000260: 55c7 e9bc 6551 06be 3841 8abd f8df b43d
00000270: 5fe9 4d3d 28f0 05be 7ac4 01be 5308 20bc
00000280: 7bb5 243b a5e9 e6bd d54b f6bd 27ed f6bc
00000290: 6fe7 d83d 2f3f b5bc 3d89 3cbd f41f 313d
000002a0: ee63 643d b2e7 5a3c b397 34bc e0bb 03bb
000002b0: 3a69 523d 1e18 9dbc 7037 73bd 475a 2abd
000002c0: 20bd 2e3d cd77 87bc 57b9 303d 799d 833d
000002d0: 9a2e fb3c aec9 12bd b1ae 163b f8ee 2a3d
000002e0: 5f1a 0a3c 907d 2a3d 4186 debc 16c5 5f3c
000002f0: d80a 76bd 82bd 92bd 4601 17bd 34ee fbbb
00000300: 8e3e 85bc bb72 b5bb 79c2 2a3d 591b ffbc
00000310: 619b 30bd 1196 f03c a17b 92bc 8f23 2e3d
00000320: c0bb 88bc 4366 e1bc d1de 353d dd74 a23c
00000330: 1f45 74bc 9883 6d3d f94e 083d 7d6b 1fbc
00000340: 9339 a2bb d4d6 163d 22ee 1eba 6eeb d63c
00000350: 6662 cebc b470 30bd 58c3 b2bc 25e5 173d
00000360: 101b 003d f3fd 043d 1612 1e3c 99d8 683c
00000370: a2fd 303c 006d 393d a4e1 0f3d a9c9 04bd
00000380: 4187 1ebc 3c40 173e 7ef6 163e b15a 4fbd
00000390: cad3 a5bd 9d5e 8dbc a7d4 4f3e 6e38 b3bc
000003a0: bffc 4cbe fbf0 59be 046e 723d 0a35 193c
000003b0: 9a1f 6dbe d21e 27be 9ebb 42bc 463c d63d
000003c0: e4ab 30be e150 40be f886 d238 e88b 1a3e
000003d0: d01a 2e3d 72d2 aabc 3ed5 ae3d d5b7 853d
000003e0: 1b12 813d c005 6fbd 6f40 25bd a98f f2bc
000003f0: d827 7fbc 3509 233c 441c dbbb 0b07 cfba
0.04861937 -0.001170303 0.005537448 0.046815448 -0.015234458 0.031514015 -0.017474419 -0.03034865
-0.054535076 0.015733087 0.055635996 -0.009007845 -0.05895174 0.002231007 0.100406125 -0.05876728
-0.046848506 0.048600722 0.050520133 0.025976889 -0.039681513 0.042211916 0.04378838 0.021884141
-0.054463517 0.048035163 -0.008033185 0.02642344 -0.029010365 0.05391199 -0.010982364 -0.0073647243
-0.032973785 0.036817778 -0.0008834979 0.023013657 0.048904616 0.020759936 0.00051710143 -0.04488939
0.0023222978 0.007438091 -0.017860895 0.02761126 0.036066815 0.009929166 -0.031186366 0.034688648
-0.04688097 -0.023936504 -0.020773195 0.0008329838 0.047706567 0.071307786 -0.02819494 -0.048073754
0.008605098 0.061835792 0.03192501 0.035176896 0.014188647 0.025186097 0.005085115 0.037998483
0.014967899 0.018674804 -0.04786088 0.0054996097 -0.0055404617 -0.06210807 -0.01512072 -0.030993735
-0.038736563 -0.05233937 0.019259216 -0.016870841 0.04280317 0.022694955 0.037110385 0.04058709
-0.017632904 0.04488192 -0.005334713 -0.052406438 0.0094679585 0.06536824 -0.016962498 -0.047244444
-0.043080322 0.03637977 0.04796911 -0.029004686 -0.08219661 0.03965247 0.037335426 -0.011594934
-0.039224036 0.014140739 0.010576232 -0.050788775 0.08119459 0.07978749 -0.11388545 -0.0028610355
0.1331592 0.0821585 -0.038799 -0.1847094 -0.08211565 0.022101987 -0.051539294 -0.12360122
-0.09029082 0.028620506 -0.0028555447 -0.07555514 -0.09286871 0.030735686 0.042095445 0.011808405
-0.04047286 0.05241183 0.018633066 -0.013451492 -0.05676873 0.035809975 0.01866989 -0.028236348
-0.047997706 0.016247401 0.0062600565 -0.034830514 0.017464455 0.043048188 0.047042683 -0.00865571
0.0017893631 -0.014099889 0.044344105 -0.025504997 0.032054685 0.021213934 0.04969046 -0.01583936
0.017520733 0.00032905707 -0.022200357 0.03320727 -0.008896509 0.0068571707 0.08008454 0.049223028
-0.028537432 -0.13116987 -0.06750721 0.08831781 0.05027139 -0.13079894 -0.12672606 -0.00976761
0.0025132585 -0.11275033 -0.120261826 -0.03014238 0.105910175 -0.022124855 -0.046029318 0.043243363
0.055759363 0.0133609045 -0.011022496 -0.0020100996 0.051369883 -0.019176539 -0.05937904 -0.04159
0.042660832 -0.016536618 0.043145504 0.0642652 0.03066187 -0.035836868 0.0022992308 0.041731805
0.008429139 0.041623652 -0.027163627 0.013657829 -0.060068935 -0.07165052 -0.03686645 -0.007688308
-0.01626518 -0.0055373586 0.04168937 -0.03114097 -0.04311693 0.029368432 -0.017881216 0.04251438
-0.016691089 -0.027514582 0.044401947 0.019831115 -0.014909058 0.057986826 0.03327844 -0.009730217
-0.004950711 0.03682597 -0.0006062706 0.026235308 -0.025193404 -0.043076232 -0.021821663 0.037083764
0.03127581 0.032468747 0.009647867 0.014211797 0.010802658 0.045269966 0.035127297 -0.03241888
-0.009675802 0.14770597 0.14742467 -0.0506236 -0.08097036 -0.01725703 0.20295964 -0.021877494
-0.2001829 -0.21283333 0.05918695 0.009351024 -0.23156586 -0.16320351 -0.011885552 0.10460715
-0.17253071 -0.18780853 0.0001003872 0.15092432 0.04250604 -0.020852301 0.085367665 0.06529204
0.063022815 -0.058355093 -0.04034465 -0.029609518 -0.015573464 0.009950926 -0.006686719 -0.0015794946

cnn2.bias f4 [32]
00000000: 02a6 02bd 93ad 8d3d 58fe d4bb a7c3 19bd
00000010: 987b f8bc 1587 eabb f086 f33c cb94 86bd
00000020: c08d 96bb eeb5 9dbc ccc3 2fbd bdc5 4ab9
00000030: 2d0a 3bbd aa21 d4bc 7504 b13d 3f86 793d
00000040: 90b1 7bbd 153a 77bc 2013 883c 8d86 1dbd
00000050: 532f 21bd 917f c43c 653b 2ebd b541 05bd
00000060: c2c4 84bc ac44 8dbd ec45 35ba 3ffc cc3c
00000070: 652e 8c3d b319 4a3c be38 24bc 2bc0 cd3c
-0.0318966 0.06917872 -0.0065000467 -0.037540104 -0.030332372 -0.0071572163 0.02972743 -0.06571349
-0.0045945346 -0.01925179 -0.042911336 -0.00019337884 -0.045664 -0.025894959 0.08643428 0.060919043
-0.061448634 -0.015089531 0.016610682 -0.038458396 -0.039351773 0.02398661 -0.04253711 -0.032533366
-0.016207103 -0.06897864 -0.0006915021 0.025022624 0.068447866 0.012335229 -0.010023294 0.025116047

fc1.weight f4 [10, 1568]
00000000: 37b1 b9bc 3957 cabb a9ca 993b 47b5 483b
00000010: 5b4a a6bc 1b67 6ebb 87a3 cbbc 5911 bbbb
00000020: 9d4a 3e3c 7cd8 d4bc 0c04 ef3c 07b1 c73b
00000030: b32d 6dbd 961a cdbc 8b1a b63c cf46 74bb
00000040: d825 bf3d 7698 9d3c 07c1 aebd 5944 9fbd
00000050: 6519 e8bc 343a 723d e333 153d 35a1 a03b
00000060: d758 d5bd cd86 433d 5a30 9abc ecb5 34bb
00000070: 3863 69bb 7f0f 6dbc 3da3 b0bd 8804 cf3c
00000080: 5828 443d 05b9 913d bb07 d53c 044c 86bb
00000090: 99c1 ea3c e023 dabd ac77 82bc de18 1a3d
000000a0: 1624 f53c 066a 983a 60d8 71bc a0b1 1f3c
000000b0: 7435 63bb 1fe6 ac3b c1f5 c9bc 370b 7abc
000000c0: 791c 0a3b b5d7 f0bc 0c4c cf39 e4f0 233c
000000d0: b93f 4abc 4c4d cebc 3cf6 b2bc 7893 313b
000000e0: 719c d7bc f51e 23bc 5dc8 29bc eb51 c63c
000000f0: e45d c33b c702 08bc 5e7a cbb9 08f5 0e3c
00000100: 2c4a 23bd 23bb 3a3d 6d88 0bbc 5694 c03c
00000110: ac0c 85bc 7408 25bc 9bec 2e3d 5c46 3d3d
00000120: f96e 0abd b0e5 33bc b839 4d3d 7a3f b03c
00000130: 6002 1cbd cc32 aebb 8ae4 ab3d 3391 1ebd
00000140: 031e 4b3c 22d2 a03c 8f98 a13b 664d ccbc
00000150: ed29 b73b 15f7 f73c 1d52 38bd 1c18 26bd
00000160: 500b 5cbc 3c26 103d a01f d4bc d8e1 77bc
00000170: b34b 8dbc a9e3 0dbd 4121 1ebc 2440 293b
00000180: 11aa b5bc 3359 a3bc 6fd2 a43c edb3 193c
00000190: 6550 a63c d5cf 8d3c f6f3 a83c e2fe 43bb
000001a0: 3c95 5b3c 1426 e5bc cc68 fdbb 558c 9dbc
000001b0: d5ba 083d 4656 6c3d 1fa3 9fbc c828 e0bc
000001c0: 9210 4c3b 551f d1bc d36b fc3c f425 073b
000001d0: fd83 8fbd 0aae 44bd 9253 a0bd e16a 26bd
000001e0: 6a4b f9bd 906e cfbd 0949 34be b88f d7bd
000001f0: 4cfd 49bc fdc2 8fba 01c1 24bc 9409 f6bc
00000200: e1ee 1f3c 6911 14bd 883f 083d e419 643b
00000210: 15a1 69bc e258 4b3d 385c f43c c99d 7d3b
00000220: 692d 883d 9b8e 243d 49cd 0aba 08f1 b03b
00000230: 3031 ef3c 5d88 adbb 33d9 9abc e251 e63c
00000240: 7942 933c 0a02 24bd 42de d1bc bc70 3bbb
00000250: 1bf2 2c3c 4f1e 343b 6f82 28bc f937 203d
00000260: 71a5 0bbb a3c7 263a 853f b5bb c095 853c
00000270: 9c2d b53c 92d5 f03c d406 843c 6256 b83b
00000280: 1e40 973d 4c2d 35bc a516 36bc c6fd 703d
00000290: 4bf4 1abc 8014 97bd cd75 ec3c 0d7e 623d
000002a0: 9834 82bc 4c02 8cbb 5020 033d 3aba 59bd
000002b0: a49d b2bd b0ec 2c3c 8d8b 41bc 26fb f73b
000002c0: 1dbe 5abb c96a 96bc 45d3 343d 0ca6 1f3d
000002d0: dadf 23bd 099a d0bc dcca 19bb ce8b d93b
000002e0: a63a 083d 74d8 e9bc 29c0 613d 4644 48bb
000002f0: 6691 75ba cbd2 1d3a e7ad 22bc ece7 853c
00000300: fa68 a1bc 060f c1ba ccfa 43bc 1691 b53b
00000310: ec64 76bc 5985 3e3b 5116 6c3b 05bc 22bd
00000320: 0c1b 2abd 41d7 9a3c dbd4 723c 0a95 90bc
00000330: 13d5 a0bc 7bd1 033c 7c61 f33b a60c 2abd
00000340: 0650 b33a d5e2 683c cc09 1abd 536d dc3c
00000350: d561 8dbc 569a 3ab9 6f6b a03d 5cdf ad3d
00000360: 232a ddbc dcef 673c 7734 883c 394e 223b
00000370: 15d3 36bc e8d3 283d 6fc1 c53d 3757 dd3b
00000380: 0612 50bc 19a3 193d 0715 083c 109c cbbd
00000390: fcbe 83bd ad7a 283d 555d 513c 5e97 a2b9
000003a0: 388b 3a3d 6296 f53c 6dbe bfbd dd54 cebd
000003b0: 79e3 0137 5b98 783c fd75 5f3c 6b67 103d
000003c0: 458e db3b 7d09 35bc d5f4 9dbd 9814 cebc
000003d0: db50 d2bc f5aa e3bb 135c e2bb 7466 fdbc
000003e0: 8006 50bd 522d 70bc 5712 26bc d9e7 4bbc
000003f0: 9d68 3dbc bc13 d93c be85 233d 7c4f 813c
-0.02266751 -0.0061749485 0.0046933484 0.0030625628 -0.020299127 -0.0036377374 -0.02485825 -0.005708855
0.011614469 -0.025982134 0.029176734 0.0060941014 -0.05790491 -0.025037091 0.022229454 -0.003727365
0.0933339 0.019237738 -0.08532911 -0.07776708 -0.028332422 0.059137538 0.036426436 0.00490203
-0.104173355 0.047735978 -0.018821884 -0.0027574254 -0.0035612117 -0.014469027 -0.08624885 0.025270715
0.047890037 0.07115368 0.026004663 -0.0040984172 0.028656768 -0.10651374 -0.015926205 0.03762137
0.029924434 0.0011628277 -0.0147610605 0.009746939 -0.0034669312 0.005276456 -0.024653317 -0.015261463
0.00210741 -0.029399732 0.00039538776 0.010006163 -0.012344294 -0.025183342 -0.02184593 0.0027095955
-0.026319714 -0.009956111 -0.010362712 0.024208983 0.0059621204 -0.008301443 -0.00038810348 0.008725412
-0.039865658 0.045588624 -0.008516413 0.023508232 -0.016241394 -0.010072816 0.042706113 0.046209678
-0.033797238 -0.010980055 0.050103873 0.021514643 -0.038088202 -0.005316114 0.083932 -0.03871269
0.012397292 0.01963145 0.0049315165 -0.02493925 0.0055897147 0.030269185 -0.045000184 -0.040550336
-0.0134304315 0.035192713 -0.025893986 -0.015129529 -0.01724801 -0.03464094 -0.009651483 0.0025825584
-0.02217582 -0.019939994 0.020119874 0.009381277 0.020302007 0.017311016 0.020624142 -0.002990656
0.0134022795 -0.027972259 -0.00773344 -0.019231955 0.033381302 0.057699464 -0.019486962 -0.027363196
0.0031137806 -0.025527636 0.030813133 0.0020621987 -0.07007597 -0.04801754 -0.0782844 -0.04062927
-0.12172587 -0.1012851 -0.17605986 -0.10525459 -0.012328457 -0.0010968145 -0.010055781 -0.030033864
0.009761543 -0.036149416 0.033263713 0.003480547 -0.014259596 0.049645312 0.02982913 0.0038698784
0.06649286 0.04017506 -0.0005294872 0.005399827 0.02919826 -0.005295797 -0.018902397 0.028115217
0.017976033 -0.040041007 -0.025618676 -0.002860113 0.010555769 0.0027483886 -0.010285004 0.03911588
-0.0021308328 0.00063621457 -0.0055312538 0.016306758 0.022116475 0.029398713 0.016116537 0.005625532
0.07385276 -0.011058163 -0.011113797 0.058835767 -0.009457658 -0.07376957 0.028864766 0.055295993
-0.01589422 -0.0042727347 0.032013237 -0.053156115 -0.08721474 0.010554478 -0.011813057 0.007567781
-0.0033377477 -0.018361466 0.044146795 0.038976714 -0.040008403 -0.025464075 -0.002346686 0.0066389805
0.033259057 -0.028545596 0.0551149 -0.0030558272 -0.00093676744 0.00060204853 -0.009929157 0.01634594
-0.019703377 -0.0014729209 -0.01196165 0.005540977 -0.01503871 0.002907118 0.0036024044 -0.03973009
-0.0415297 0.01890147 0.0148212565 -0.017649192 -0.019632852 0.0080455495 0.0074273925 -0.04151597
0.0013680465 0.014214237 -0.037607 0.026907599 -0.017258564 -0.00017795837 0.07832991 0.08489868
-0.026997631 0.014156308 0.01662658 0.0024765863 -0.011158724 0.041217715 0.09656035 0.0067547816
-0.01269961 0.037509058 0.008305795 -0.09941876 -0.06432912 0.041132618 0.0127786 -0.00031011825
0.045542926 0.029978935 -0.09362493 -0.1007478 7.741962e-06 0.015173043 0.01363897 0.035254877
0.0067003095 -0.011049625 -0.07712714 -0.025156304 -0.02567332 -0.00694787 -0.0069079488 -0.030932643
-0.05078745 -0.014659243 -0.0101362085 -0.0124454135 -0.011560586 0.026498668 0.03992247 0.015784971

fc1.bias f4 [10]
00000000: 5cad 3dbd e690 183d dff0 63bc 3f3c 77bd
00000010: 91e7 2cbd eb28 7c3c 07dc 80bc 6c54 d1bc
00000020: daff 323d 701d e23c
-0.046307907 0.03724756 -0.013912409 -0.06036019 -0.042213026 0.015390615 -0.015729917 -0.02555295
0.04370103 0.027601928
