LSTM-Model.pkl (torch_old, 536639 bytes, 10 tensors)

lstm.weight_ih_l0 f4 [400, 28]
0	0xbd99cd09	-0.075098105
1	0x3d5ca3ea	0.053867258
2	0xbc29381d	-0.01032832
3	0x3c475562	0.012166353
4	0x3c4d5724	0.012532983
5	0x3cf8a710	0.0303531
6	0xbd18a2dd	-0.037264694
7	0x3d81b0b5	0.06332532
8	0x3df13992	0.11778559
9	0xbd5252ec	-0.05134861
10	0x3e152094	0.14563209
11	0xbc31aef4	-0.010844935
12	0x3d3d7ad0	0.0462597
13	0x3d419ebd	0.047270525
14	0x3e005e8a	0.12536064
15	0xbaeb2e6d	-0.0017942913
16	0x3e119784	0.14217955
17	0x3de741a2	0.11291815
18	0x3de50ab6	0.111836836
19	0x3e0d934a	0.13825718
20	0x3c4bcf8d	0.012439621
21	0x3d63150d	0.055439997
22	0x3d80d53c	0.06290671
23	0x3da3edc5	0.08004335
24	0x3db6e351	0.08930076
25	0xbd06646e	-0.03281062
26	0xbd7b4581	-0.06134558
27	0xbd560c1a	-0.052257635
28	0x3bce9a27	0.0063049975
29	0x3d76d96e	0.06026595
30	0x3d2940b2	0.041321464
31	0xbc45b40b	-0.012066851
32	0x3c143bd4	0.009047467
33	0x3cdccf40	0.026954293
34	0x3d6f7832	0.058464237
35	0x3db8fff7	0.090331964
36	0xbc9f8f66	-0.019477557
37	0x3dc2d5a5	0.09513406
38	0x3d2b9c55	0.041897137
39	0x3bc672af	0.006056152
40	0x3c16c633	0.009202528
41	0x3d1197a7	0.035545018
42	0x3d3bd6c7	0.045859125
43	0xbabca94c	-0.0014393716
44	0xbcddeb00	-0.027089596
45	0x3d809537	0.062784605
46	0x3d120428	0.035648495
47	0x3ce91d0d	0.028456235
48	0xbd8eada0	-0.0696671
49	0xbc943a92	-0.018094335
50	0xbd9ac5af	-0.075572364
51	0x3db1a8e8	0.086747944
52	0xbdc519c1	-0.09624053
53	0xbcf41faf	-0.029800264
54	0xbd765283	-0.060137283
55	0x3d8c2f2a	0.06844933
56	0xbd47700c	-0.04869084
57	0xbdb2cf04	-0.08730891
58	0x3b7cbc8b	0.0038564529
59	0xbd6da3e2	-0.05801762
60	0x3ccba81a	0.02486043
61	0x3d9b1994	0.07573238
62	0x3d0849ea	0.033273615
63	0xbd0635dc	-0.032766208
64	0x3d379859	0.044823024
65	0xbd450ddf	-0.04810893
66	0xbd0c5cbc	-0.034268126
67	0xbd409347	-0.047015455
68	0x3de6c9f1	0.11268986
69	0x3d7a262c	0.06107156
70	0x3d005793	0.031333517
71	0x3d7a2ec8	0.06107977
72	0xbd5b3a56	-0.05352243
73	0xbc885cbb	-0.01664578
74	0xbd8559a1	-0.06511236
75	0xbd71b99b	-0.059014898
76	0x3da3ec18	0.08004016
77	0x3d12ba95	0.03582247
78	0xbd2f8c16	-0.042858206
79	0x3d28cfee	0.041213922
80	0xbd7506e1	-0.059821013
81	0x3d82c027	0.063843064
82	0x3d861224	0.06546429
83	0x39874879	0.00025803203
84	0x3cb3d51b	0.021952203
85	0x3d9eaa9c	0.07747385
86	0xbdadadfc	-0.084804505
87	0x3d877c55	0.06615511
88	0x3ddcad2a	0.10775216
89	0x3cb41840	0.02198422
90	0x3d77d781	0.060508255
91	0x3cd9af75	0.026572922
92	0xbd7e13fb	-0.062030774
93	0xbcaf2f35	-0.021384815
94	0xbc86a82b	-0.01643761
95	0xbd8325e3	-0.06403711
96	0x3d830c95	0.06398884
97	0x3e1bbf2d	0.15209647
98	0xbc2cb7ef	-0.0105419
99	0x3e21a1a4	0.15784317
100	0x3d6172de	0.055041187
101	0x3bbf06c5	0.0058296644
102	0xbd0750ec	-0.033036157
103	0xbc7ab799	-0.015302562
104	0xbd71f13b	-0.059067946
105	0xbce936d1	-0.028468521
106	0xbd832ce8	-0.064050496
107	0xbcef50db	-0.02921336
108	0xbdacead1	-0.08443225
109	0x3dd30e45	0.10305456
110	0xbd71c76f	-0.059028085
111	0xbd54bf3d	-0.05194019
112	0xbcf97aa8	-0.030453995
113	0x3c540636	0.012940934
114	0xbd1309a1	-0.035897855
115	0xbd2c84de	-0.0421189
116	0xbc5d51de	-0.013508288
117	0x3da1c658	0.07899159
118	0x3d0af7d9	0.033927772
119	0xbcaae85e	-0.020862754
120	0x3d20e69c	0.039282426
121	0x3d77562a	0.060384907
122	0x3c672e86	0.014110213
123	0xbd9f85e5	-0.0778921
124	0xbcdad238	-0.026711568
125	0x3da53861	0.08067394
126	0xbd371389	-0.044696365
127	0xbca29f71	-0.019851418
128	0x3d09252b	0.03348271
129	0xbd662ad6	-0.056193195
130	0xbd6f0c28	-0.058361202
131	0xbd7a7971	-0.06115097
132	0x3daae50b	0.08344468
133	0x3da54874	0.0807046
134	0x3d41d42e	0.04732149
135	0xbce30b42	-0.02771533
136	0x3da45442	0.080238834
137	0x3c82e3c4	0.015977748
138	0x3db60d7b	0.0888929
139	0xbc09eabd	-0.008417782
140	0x3d4d7ef3	0.050169896
141	0xbdae42e4	-0.08508852
142	0xbd985a60	-0.07439113
143	0xbd5681f9	-0.052370045
144	0x3dac1f19	0.08404369
145	0xbcbedb11	-0.023297818
146	0x3d8e0ac5	0.06935648
147	0xbd8046f1	-0.06263531
148	0xbc42bc2f	-0.011885687
149	0xbc369eb2	-0.011146234
150	0xbd803e84	-0.06261924
151	0x3dd008e1	0.101579435
152	0x3db66d3c	0.089075536
153	0x3d97a31d	0.07404158
154	0xbca3b5c0	-0.019984126
155	0xbcccdfe3	-0.025009101
156	0x3b55d571	0.0032628442
157	0x3d4c6645	0.04990222
158	0x3d107b65	0.03527393
159	0xbd668fe6	-0.056289576
160	0xbd4a1e82	-0.0493455
161	0xbd0f7f1e	-0.035033338
162	0xbca3fd22	-0.020018164
163	0xbd23b000	-0.03996277
164	0x3d9166b7	0.070996694
165	0x3d7229b4	0.059121802
166	0x3da7189e	0.08158992
167	0x3c87874a	0.016544003
168	0xbdb954f5	-0.090494074
169	0x3dbeb0df	0.09311079
170	0xbc04cd7e	-0.008105634
171	0x3cab7e8f	0.020934371
172	0x3db053e5	0.086097516
173	0xbd89dc93	-0.06731524
174	0xbd9b1a3f	-0.075733654
175	0xbd942014	-0.07232681
176	0x3dd907f0	0.10597217
177	0xbd38e4ae	-0.04513996
178	0x3c01dd8d	0.007926357
179	0x3d714a77	0.058908906
180	0x3dcfbe59	0.10143728
181	0xbc9a0f90	-0.018806249
182	0xbcde9679	-0.02717136
183	0x3d5d6af5	0.05405708
184	0x3e00f041	0.1259165
185	0xbc133065	-0.008983706
186	0x3d1c6f71	0.038192216
187	0x3d640b50	0.05567485
188	0x3d3144c4	0.04327847
189	0x3dd578cb	0.1042343
190	0xbce736a7	-0.028224302
191	0xbd22b157	-0.039719906
192	0x3b025276	0.0019885576
193	0x3aa877cf	0.0012853089
194	0x3d98a575	0.074534334
195	0x3add7597	0.0016896006
196	0xbcb768f3	-0.02238891
197	0x3dbc91fa	0.0920753
198	0x3d8701e2	0.06592156
199	0x3d049574	0.032369092
200	0xbd373c27	-0.0447351
201	0xbd722e30	-0.05912608
202	0xbdadc026	-0.08483915
203	0x3c9da040	0.019241452
204	0x3d2666d9	0.040625427
205	0xbda4a0b8	-0.08038467
206	0x3c95c114	0.018280543
207	0x3cf127c9	0.029437916
208	0xbd5fa7a9	-0.054603253
209	0x3cdd2b29	0.02699812
210	0xbd1ba1a6	-0.037995957
211	0x3de80f2d	0.113310196
212	0x3c1fcdf8	0.009753697
213	0xbd689287	-0.056780364
214	0x3d31f97e	0.043450825
215	0xbd5c6cf4	-0.053814843
216	0x3c98b610	0.018641502
217	0xbd379680	-0.044821262
218	0xbd036c70	-0.032085836
219	0x3d63eb27	0.05564418
220	0x3ca43c46	0.020048272
221	0xbd18ad9a	-0.037274934
222	0x3dbd5758	0.09245175
223	0x3d8deb8e	0.06929694
224	0x3ca4340f	0.020044355
225	0xbdba09d1	-0.090839036
226	0x3db55c57	0.08855503
227	0xbdbf5b76	-0.09343617
228	0xbda9a667	-0.08283692
229	0xbd1f3dfb	-0.03887747
230	0x3d350bdb	0.04420076
231	0x3dc6314a	0.0967737
232	0x3dd04fcf	0.10171472
233	0x3d2a7009	0.04161075
234	0xbd0a8a86	-0.033823512
235	0xbdb49912	-0.08818258
236	0xbd9c585f	-0.07634043
237	0xbcbb0dc6	-0.022833716
238	0x3cac6573	0.021044469
239	0x3dd60607	0.104503684
240	0x3d29fa98	0.04149875
241	0xbd32e4e5	-0.043675322
242	0x3d9303df	0.07178473
243	0x3d87d98d	0.066332914
244	0x3d88353a	0.06650777
245	0x3d23ac00	0.039958954
246	0x3ddc55f7	0.10758584
247	0xbb8b3469	-0.004248191
248	0x3c83f30e	0.016107108
249	0xbd1be11d	-0.03805648
250	0x3db747d8	0.0894925
251	0xbcc15f52	-0.023605023
252	0xbd2c5144	-0.04206969
253	0x3d904338	0.07044071
254	0x3dac8975	0.08424655
255	0x3dcc84cf	0.09986269

lstm.weight_hh_l0 f4 [400, 100]
0	0x3dce62fb	0.10077473
1	0x3d1c0a2c	0.03809564
2	0xbd066a1c	-0.032816038
3	0xbd9a0857	-0.07521122
4	0x3db5e40f	0.08881389
5	0xbdafb69b	-0.08579751
6	0xbaff0a5d	-0.0019458045
7	0xbcf375fd	-0.029719347
8	0x3c049832	0.008092927
9	0xbc07c618	-0.008286975
10	0xbc58856d	-0.013215405
11	0x3db141af	0.08655106
12	0x3d9c91be	0.076449856
13	0x3bbf79be	0.00584337
14	0x3c9df048	0.019279614
15	0x3d0c5d36	0.03426858
16	0x3cd4f908	0.025997654
17	0x3dbcc70f	0.09217655
18	0xbc689159	-0.01419481
19	0xbd92223f	-0.07135438
20	0x3c49ed4e	0.012324644
21	0x3da272ef	0.07932078
22	0xbd86bfec	-0.06579575
23	0x3beacb2e	0.007165334
24	0xbda0f2b5	-0.07858793
25	0x3cf2955e	0.02961224
26	0x3d995435	0.07486764
27	0xbdd5584d	-0.10417233
28	0x3dbb3c57	0.09142368
29	0xbd0ae3d8	-0.033908695
30	0xbc1e4bed	-0.009661657
31	0x3cd3890a	0.025822181
32	0xbc46a336	-0.012123873
33	0xbd562719	-0.05228338
34	0xbca91634	-0.02064047
35	0xbc68afc7	-0.014202065
36	0x3d543612	0.051809378
37	0x3d8a0874	0.067398936
38	0x3deb2743	0.11482098
39	0x3db2235b	0.0869815
40	0x3c9f4740	0.019443154
41	0xbc158333	-0.009125519
42	0x3c4f232a	0.012642661
43	0x3d01cfe8	0.031692415
44	0xbd3762d4	-0.044771984
45	0x3d6e2292	0.058138438
46	0xbce9bd7d	-0.028532738
47	0x3d0500d8	0.032471508
48	0x3decc2d8	0.11560601
49	0xbda41b66	-0.08013038
50	0x3d9f4eab	0.077786766
51	0x3dc6c66c	0.09705815
52	0x3d8943db	0.067023955
53	0xbd9f7ab5	-0.077870764
54	0x3ddd1c25	0.10796384
55	0x3d0d4bc6	0.03449609
56	0x3dbb30b9	0.091401525
57	0xbd37bc82	-0.04485751
58	0xbc401b4b	-0.011725257
59	0x3d8c568e	0.068524465
60	0x3cd7604e	0.026291039
61	0x3c2ad4e1	0.010426731
62	0x3d9ba2c1	0.07599402
63	0x3d50723d	0.050890196
64	0xbd77cb70	-0.060496747
65	0xba09e01b	-0.00052595296
66	0x3ca53fbf	0.020171998
67	0xbbb4c5ab	-0.005516728
68	0xbbf5ef8d	-0.0075053633
69	0x3d1cffd8	0.03832993
70	0xbd2dd08a	-0.042435206
71	0xbc4550db	-0.012043203
72	0x3d0b7fc1	0.034057382
73	0x3d58ede4	0.052961245
74	0x3dabe7a6	0.08393793
75	0xbdbe7cfe	-0.09301184
76	0xbd9cf654	-0.07664171
77	0x3dd22720	0.10261369
78	0x3d494f9a	0.04914818
79	0xbd9aaf51	-0.0755297
80	0xbcda3384	-0.026635893
81	0xbc5a6196	-0.01332893
82	0x3cfe0727	0.03100927
83	0xbd18b432	-0.037281223
84	0xbd86f6e1	-0.06590057
85	0xbd928485	-0.07154182
86	0xbd374089	-0.04473928
87	0x3d5c3095	0.05375727
88	0x3cff8029	0.031189041
89	0x3d5fcf5c	0.054641113
90	0xbc7f5c4e	-0.015585972
91	0x3db69337	0.08914798
92	0xbca1103e	-0.019661065
93	0x3d92f596	0.07175748
94	0xbc0bd5aa	-0.008534828
95	0xbb87898c	-0.00413627
96	0xbb472211	-0.0030385295
97	0x3bc7b2ac	0.0060942974
98	0xbd618a56	-0.055063568
99	0xbd7949f9	-0.06086156
100	0xbb6582d0	-0.0035020597
101	0xbd88981e	-0.06669639
102	0xbd0693bb	-0.03285573
103	0x3d4f3946	0.05059173
104	0xbd93ba2e	-0.07213245
105	0xbd2b7370	-0.041858137
106	0xbbe2f200	-0.0069258213
107	0x3dbfd1e0	0.09366202
108	0x3da67ad8	0.08128899
109	0x3d3a31d8	0.04545769
110	0x3dc10cd3	0.09426274
111	0x3c1d2bda	0.009592975
112	0xbde359fa	-0.11101146
113	0x3ca22286	0.019791853
114	0xbd17f8c9	-0.037102494
115	0x3d9fea4f	0.07808363
116	0x3ca20e81	0.019782307
117	0x3b42f95b	0.0029750678
118	0x3c8a0a6f	0.016850678
119	0x3db48ee6	0.08816318
120	0xbd89cfc8	-0.06729084
121	0xbc99d7fd	-0.018779749
122	0xbc58f20b	-0.013241301
123	0xbd6c09f5	-0.057626683
124	0x3da04faa	0.07827695
125	0xbd8979a0	-0.06712651
126	0x3ce47384	0.027887113
127	0x3d9086e4	0.07056978
128	0x3d5b28c3	0.05350567
129	0x3dd07951	0.10179389
130	0xbad94b9c	-0.001657832
131	0x3d12cfcf	0.035842713
132	0xbb0f2994	-0.002184485
133	0x3da63ce5	0.081170835
134	0x3d3655a6	0.044515274
135	0x3b0203b1	0.0019838626
136	0xbd3830e6	-0.04496851
137	0xbd97eb59	-0.07417936
138	0x3cded775	0.027202347
139	0xbd36216a	-0.04446546
140	0x3d0ef698	0.03490314
141	0x3d3fb6df	0.04680526
142	0x3c9a1b78	0.018811926
143	0xbc74f4cf	-0.014950945
144	0x39fc6e95	0.00048147576
145	0x3db947c7	0.090468936
146	0xbdf84f2a	-0.12124474
147	0xbd3c14c2	-0.045918234
148	0x3dc967f7	0.09834283
149	0xbb4a483a	-0.0030865804
150	0x3c3d142e	0.011540456
151	0xbd2bbd5f	-0.041928645
152	0x3b0bfa99	0.0021359085
153	0xbdcdfedc	-0.10058376
154	0x3dc9bc4e	0.098503694
155	0x3d930744	0.0717912
156	0x3d96783b	0.07347151
157	0xbd01c41a	-0.031681158
158	0xbd7b811c	-0.061402425
159	0xbc8448e5	-0.01614804
160	0x3d97d002	0.07412721
161	0x3de560d6	0.112001106
162	0xbdbecbf8	-0.09316248
163	0x3d458047	0.048218038
164	0x3cbb6110	0.022873431
165	0x3d2f515f	0.04280221
166	0x3cef7490	0.029230386
167	0xbdea6c09	-0.11446387
168	0xbcf52c27	-0.02992828
169	0xbb9032e8	-0.0044005997
170	0x3daebba7	0.085318856
171	0x3b449820	0.00299979
172	0x3d6b4959	0.057442997
173	0xbd94a10f	-0.07257282
174	0x3d0e52db	0.034746986
175	0x3d5160b0	0.0511176
176	0x3db3f414	0.087867886
177	0xbd17e6ec	-0.03708546
178	0x3da8dffd	0.082458474
179	0x3c32f90b	0.010923634
180	0x3d2a5640	0.04158616
181	0x3d6a250c	0.057164237
182	0x3d6e3a9f	0.058161374
183	0xbd9ac6f6	-0.0755748
184	0x3d70fb82	0.058833607
185	0x39ea1c73	0.00044653154
186	0x3d7a0899	0.061043356
187	0x3db2ece1	0.08736587
188	0x3c6f79f5	0.014616479
189	0x3b9c57ce	0.0047712093
190	0xbd07e5e5	-0.03317823
191	0xbd90aa1c	-0.07063696
192	0x3c2d749e	0.010586886
193	0x3d6c2606	0.05765345
194	0xbcb5d2ba	-0.022195209
195	0xbc886933	-0.016651725
196	0xbd9adc80	-0.07561588
197	0x3d0d5783	0.034507286
198	0x3dba4da3	0.09096839
199	0x3c8b0bc1	0.016973378
200	0x3d9bf524	0.07615116
201	0xbd1be78b	-0.038062613
202	0x3dc7a217	0.09747713
203	0xbd0e19ea	-0.034692682
204	0x3d9f71d8	0.07785386
205	0xbd6ad50d	-0.057332087
206	0x3cfc6b95	0.030813018
207	0x3d9967a1	0.07490469
208	0xbcb5fbe8	-0.022214845
209	0x3da2287b	0.07917877
210	0x3d3fcae8	0.046824366
211	0x3d52db20	0.051478505
212	0xbcf16ad7	-0.02946989
213	0x3d740527	0.059575226
214	0x3dc366e1	0.09541107
215	0x3d61dcb9	0.05514214
216	0xbd749811	-0.059715334
217	0xbdc94f87	-0.09829622
218	0x3db0136c	0.085974544
219	0xbb81a954	-0.003956953
220	0x3d57c38e	0.05267673
221	0x3d531f4c	0.05154352
222	0xbdaa0930	-0.083025336
223	0x3d3d3178	0.046189755
224	0x3cb31023	0.02185828
225	0xbdae0914	-0.08497825
226	0x3d272a29	0.04081169
227	0x3cdb93d2	0.026803885
228	0xbd93de86	-0.07220177
229	0x3ce04019	0.027374314
230	0x3c19837d	0.009369728
231	0x3da15ce8	0.078790486
232	0xbd5ad047	-0.053421285
233	0x3c3d56f8	0.0115563795
234	0x3bd46e37	0.006482865
235	0x3d848bc1	0.064719684
236	0x3d00c294	0.031435564
237	0xbdc63891	-0.09678758
238	0xbd7226db	-0.059119087
239	0x3d8ed48d	0.069741346
240	0x3d342255	0.043978054
241	0x3d0ad490	0.03389412
242	0xbda965f7	-0.082714014
243	0xbd047c95	-0.032345373
244	0xbdb506bf	-0.08839177
245	0x3bc2758d	0.0059344233
246	0xbd11c65f	-0.035589572
247	0xbdbce610	-0.092235684
248	0x3c149acc	0.00907011
249	0x3db18ac1	0.08669043
250	0xbdc64912	-0.09681906
251	0x3d6edbdb	0.05831514
252	0x3d99f209	0.07516868
253	0xbd8c7b0b	-0.06859406
254	0xbc347aaf	-0.011015578
255	0x3d898510	0.06714833

lstm.bias_ih_l0 f4 [400]
0	0x3d81c3bb	0.06336161
1	0xbc359d90	-0.011084929
2	0xbc236691	-0.009973184
3	0x3de00ff0	0.1094054
4	0x3d54150b	0.05177788
5	0x3beb76af	0.007185779
6	0x3bbd071c	0.00576867
7	0x3dd7fc27	0.10546141
8	0xbc801423	-0.015634602
9	0x3cb686d2	0.022281084
10	0x3e6009d7	0.21878754
11	0x3dbf7345	0.09348158
12	0x3e221859	0.158296
13	0xbcf0d9ea	-0.029400785
14	0x3db750f9	0.08950991
15	0x3e20c82c	0.1570136
16	0x3c84dca3	0.016218489
17	0x3d370bc3	0.04468895
18	0xbd2b08ff	-0.041756626
19	0x3ccf552e	0.025309172
20	0x3daafa9d	0.08348582
21	0x3d383dab	0.044980686
22	0x3cf0feae	0.029418316
23	0x3c3bbd73	0.011458742
24	0x3e3f96c9	0.18709864
25	0x3dbe16b8	0.09281677
26	0x3e388df5	0.18022902
27	0x3db71fac	0.08941588
28	0x3d169379	0.036761735
29	0x3917c09b	0.00014472233
30	0x3df348b4	0.118791014
31	0xbab5f08d	-0.0013880894
32	0x3e164986	0.14676484
33	0x3e202823	0.15640311
34	0x3db9a9cd	0.0906559
35	0x3e0e17ab	0.13876216
36	0x3e3f8a31	0.1870506
37	0x3c87961c	0.01655107
38	0x3ddb360c	0.10703668
39	0x3d689c80	0.056789875
40	0x3d666052	0.056244202
41	0x393ea6cd	0.0001818195
42	0x3db9c583	0.090708755
43	0x3c1c2cdc	0.00953218
44	0x3dcd7f97	0.100341015
45	0x3e43d507	0.19124232
46	0x3e349deb	0.17638366
47	0x3dbc4b57	0.091940574
48	0x3d7e8d43	0.062146436
49	0x3df0fa9a	0.117665485
50	0x3c96f2ce	0.018426325
51	0x3cb319e8	0.021862939
52	0x3d34658e	0.044042163
53	0x3d29148c	0.04127936
54	0x3b82e32d	0.0039943666
55	0x3d6c7740	0.057730913
56	0x3d4ed1c8	0.05049303
57	0xbd01cff6	-0.031692468
58	0x3d55a89c	0.05216275
59	0xbd82600b	-0.06365975
60	0x3db7e246	0.08978705
61	0x3d882666	0.06647949
62	0x3db1177a	0.08647056
63	0x3dae7fb3	0.085204504
64	0x3dc4cb37	0.09609073
65	0xbb61023f	-0.0034333614
66	0x3d217298	0.039415926
67	0x3cd1de26	0.025618624
68	0xbd35cd47	-0.04438522
69	0x3d67acd5	0.05656131
70	0x3e00eb91	0.12589861
71	0x3db99592	0.090617314
72	0x3b9b31c6	0.004736158
73	0xbb845037	-0.0040378827
74	0x3bbff2da	0.0058578076
75	0x3e0e2624	0.13881737
76	0x3ded3306	0.115819976
77	0x3c5cf152	0.01348527
78	0x3c52a4a9	0.012856641
79	0x3de6477f	0.112441055
80	0x3c74ea80	0.014948487
81	0xbd3860be	-0.045014136
82	0xbd283943	-0.041070234
83	0x3c9b303f	0.018943904
84	0x3df8be4f	0.121456735
85	0x3d311add	0.04323851
86	0x3d88ca99	0.066792674
87	0x3bd1935d	0.006395741
88	0xbd11bf7d	-0.035583008
89	0x3c9ceb60	0.019155204
90	0x3dd5f521	0.10447145
91	0x3d3da8a3	0.046303403
92	0x3cd7d027	0.026344372
93	0x3e467d08	0.19383633
94	0x3d322b50	0.043498337
95	0xbd1064a8	-0.035252243
96	0x3ce3883b	0.02777492
97	0x3e2107d9	0.1572565
98	0x3dbda0b3	0.092591666
99	0xbd2b9d03	-0.041897785
100	0xbd651c18	-0.055934995
101	0x3d122655	0.035681088
102	0x3d77cffc	0.060501084
103	0x3866e98a	5.5053773e-05
104	0x3df3e368	0.11908609
105	0xbc746c30	-0.014918372
106	0x3de6524f	0.11246168
107	0xbd61db4d	-0.055140782
108	0x3dc48d5a	0.09597273
109	0x3bc7b821	0.006094948
110	0x3e8e9aa0	0.27852345
111	0xbd79d0b8	-0.060990065
112	0xbd97e906	-0.074174926
113	0x3d8eff0c	0.0698224
114	0x3daff23e	0.08591126
115	0xbcbc8bdc	-0.023015909
116	0x3cf3eff4	0.029777505
117	0xbcdff394	-0.027337827
118	0x3e15cc14	0.14628631
119	0x3d8085f1	0.06275547
120	0x3e2e5242	0.17023566
121	0x3e2e968b	0.17049615
122	0xbc0facd9	-0.008769237
123	0x3dc48998	0.095965564
124	0x3bfd4da2	0.007730202
125	0x3bee59ba	0.00727388
126	0x3db87afd	0.09007833
127	0xbcf0228c	-0.029313348
128	0x3d0fef29	0.03514019
129	0xbc13b002	-0.0090141315
130	0x3d2b9809	0.04189304
131	0x3df972c3	0.12180092
132	0x3d1caaef	0.038248952
133	0x3d8bc895	0.06825367
134	0x3da53e95	0.08068577
135	0x3e115b7f	0.14195059
136	0x3e2df168	0.1698662
137	0x3db51c88	0.088433325
138	0x3dd62e8b	0.10458096
139	0xbcd26156	-0.025681179
140	0x3e067364	0.13129956
141	0x3c245e43	0.010032239
142	0x3dbdb6cd	0.09263382
143	0x3d2cae71	0.042158548
144	0xbae68eeb	-0.00175902
145	0x3dc8f2db	0.09811946
146	0x3e448545	0.19191463
147	0x3dcc23f2	0.099677935
148	0xbd9c2c7b	-0.076256715
149	0xbd795101	-0.060868267
150	0x3c9c6cef	0.019094912
151	0x3dacabab	0.084311806
152	0x3d04e30e	0.0324431
153	0xbd02d8d9	-0.031945083
154	0xbd439428	-0.047748715
155	0x3d0d7e0d	0.03454404
156	0x3d987a1b	0.07445165
157	0xbcff8ad8	-0.031194136
158	0xbd5bc0fc	-0.05365084
159	0xbadda4b8	-0.0016910052
160	0x3dc31741	0.0952592
161	0x3cec1280	0.028817415
162	0x3df6a974	0.12044039
163	0x3cc661be	0.024216529
164	0xbc4d756c	-0.012540203
165	0x3d5d3e38	0.054014415
166	0xbc930970	-0.017948836
167	0x3b6c1518	0.0036023315
168	0x3c9f1567	0.019419385
169	0x3e004845	0.12527569
170	0x3de9eef1	0.114225276
171	0x3e489cca	0.1959106
172	0x3c39b81a	0.011335397
173	0xbcd6e3ac	-0.02623161
174	0x3da2bf55	0.0794665
175	0xbd068f63	-0.032851588
176	0x3dc6dbfb	0.09709927
177	0x3d89591f	0.067064516
178	0x3d907f5b	0.07055541
179	0xbcb9b681	-0.022670032
180	0x3d4b6db5	0.04966517
181	0x3d14098f	0.03614193
182	0x3caa3d1b	0.02078109
183	0x3e159e45	0.14611156
184	0x3ce0e255	0.027451674
185	0x3ddffb94	0.109366566
186	0x3d9db6f7	0.077009134
187	0x3d82b0a9	0.063813515
188	0xbd3d7893	-0.046257567
189	0x3e0367fc	0.12832636
190	0x3e03bd2b	0.1286513
191	0x3e004364	0.12525707
192	0xbc8135f1	-0.015772792
193	0x3e30d135	0.17267306
194	0x3de680a1	0.11255003
195	0xbd80499f	-0.06264042
196	0x3d1d6c1d	0.038433183
197	0x3e4123d9	0.18861331
198	0x3d1c4eb0	0.03816098
199	0x3c5f4599	0.013627433
200	0xbd77b622	-0.06047643
201	0xbdaa4438	-0.08313793
202	0x3d884af0	0.06654918
203	0x3d7f6cc3	0.062359583
204	0x3c974792	0.018466745
205	0xbdb8809d	-0.09008906
206	0x3e0d20a8	0.13781989
207	0xbd817bb3	-0.06322422
208	0xbd992f9d	-0.07479785
209	0x3dc8ad1b	0.09798642
210	0x3d9d4b5d	0.0768039
211	0xbd45437a	-0.048160054
212	0x3e054556	0.13014731
213	0x3d76065d	0.060064662
214	0xbdcc321c	-0.09970495
215	0xbb958de0	-0.004564032
216	0xbc86912d	-0.016426647
217	0x3c347fa5	0.011016761
218	0xbda18a78	-0.07887739
219	0xbe0653c5	-0.13117893
220	0xbe08f2f9	-0.13373937
221	0x3df1cb97	0.1180641
222	0xbd9174c3	-0.07102349
223	0x3e48353f	0.19551562
224	0xbde15a50	-0.11003554
225	0xbdd768e9	-0.10518057
226	0x3d831215	0.06399933
227	0x3df82453	0.12116303
228	0xbddd5be6	-0.10808544
229	0xbe3363ff	-0.17518614
230	0xbe453175	-0.19257148
231	0xbd6229d5	-0.055215675
232	0x3ea44ef2	0.3209148
233	0x3d8e1f13	0.06939521
234	0x3c608565	0.013703679
235	0xbd5d4bdc	-0.054027423
236	0x3e650a74	0.22367269
237	0xbe98aa72	-0.2981754
238	0x3e045904	0.12924582
239	0xbe049b0e	-0.12949774
240	0x3d19da60	0.037561774
241	0xbe0682a9	-0.1313578
242	0xbe13059a	-0.14357606
243	0xbd10b639	-0.03533003
244	0x3e2c03ac	0.16798276
245	0x3dcf0eeb	0.10110267
246	0xbdcc2467	-0.09967881
247	0xbdc0fd37	-0.09423297
248	0xbde3d67e	-0.111248955
249	0x3dcd1fd4	0.10015836
250	0x3d6c14c3	0.057636987
251	0x3e488492	0.19581822
252	0xbcc9bea4	-0.024627037
253	0x3cc7c3dc	0.024385385
254	0xbc14a6eb	-0.0090729995
255	0xbe383de1	-0.17992355

lstm.bias_hh_l0 f4 [400]
0	0x3d001cf9	0.03127763
1	0x3dc5e39f	0.09662556
2	0xbca30ab7	-0.01990257
3	0x3d27e493	0.04098947
4	0x3df15f2c	0.11785731
5	0xbccfae2f	-0.025351612
6	0x3d873bd0	0.06603205
7	0x3df229d4	0.11824384
8	0xbcaec970	-0.021336287
9	0x3e0eec5a	0.13957348
10	0x3dcae0ba	0.099061444
11	0xbd2687d3	-0.040656876
12	0x3dcebb08	0.10094267
13	0x3c288fa3	0.010288152
14	0x3d940440	0.07227373
15	0x3d8fd1dc	0.070224494
16	0x3dd3d72e	0.10343777
17	0x3dab5648	0.08366066
18	0x3dfe32e5	0.12412051
19	0x3d10b6b2	0.03533048
20	0x3d1cec27	0.03831115
21	0x3e03296e	0.12808773
22	0x3e1cf868	0.15329134
23	0x3dda32a9	0.10654194
24	0x3e1450e9	0.1448399
25	0xbb76ac31	-0.0037639255
26	0x3d4cc54a	0.049992837
27	0x3a4f6a98	0.0007912307
28	0x3dc19515	0.09452263
29	0x3dad4881	0.08461095
30	0xbd209c61	-0.039211635
31	0x3c9593ec	0.018259011
32	0x3d56f691	0.052481238
33	0x3e169760	0.14706182
34	0x3d0fca43	0.035105
35	0x3e08351b	0.13301508
36	0x3e3267e4	0.17422444
37	0x3ca5f312	0.020257507
38	0x3dd5e471	0.10443962
39	0x3d74caeb	0.05976383
40	0x3de3bd55	0.111200966
41	0xbc8cde62	-0.017195884
42	0x3d8d2680	0.06892109
43	0x3c41a97c	0.011820193
44	0x3db8415b	0.089968406
45	0x3e01fb09	0.12693419
46	0x3e33f0c7	0.17572318
47	0x3c9e718b	0.01934125
48	0x3de1e53e	0.110300526
49	0x3e048a71	0.12943436
50	0xbc9a420e	-0.018830325
51	0x3dd4fa66	0.10399322
52	0x3db2415c	0.087038726
53	0x3d71b01c	0.05900584
54	0x3bfd59c2	0.007731647
55	0x3de32547	0.110910945
56	0x3e347306	0.17622003
57	0x3e035b08	0.12827694
58	0x3cafeab5	0.021474222
59	0xbb44dda4	-0.0030039335
60	0x3d3f08d2	0.04663927
61	0xbcbfe54a	-0.023424763
62	0x3d79e9e3	0.061014067
63	0xbc7caa0d	-0.015421403
64	0x3c06a485	0.008217935
65	0x3d9c254e	0.07624303
66	0x3dc5b66d	0.096539356
67	0x3d0d946a	0.034565367
68	0xbd085317	-0.033282366
69	0x3dff87d2	0.124770775
70	0x3d5f5324	0.05452265
71	0x3af25889	0.001848952
72	0x3d0a3e0e	0.033750586
73	0xbc8d2650	-0.017230183
74	0x3d86dfcc	0.065856546
75	0x3e25291f	0.16128968
76	0x3e10eeab	0.14153545
77	0xbcad33a0	-0.02114278
78	0x3cc1f455	0.023676077
79	0x3d5944f1	0.053044263
80	0x3cb9ce43	0.022681361
81	0xbd26c5ea	-0.04071609
82	0xbcc5ff29	-0.024169521
83	0x3e30dfd4	0.17272884
84	0x3c457737	0.012052349
85	0x3cbb77e1	0.022884311
86	0xbcd03a3e	-0.025418397
87	0x3da2a559	0.07941694
88	0x3a0706fa	0.0005150881
89	0x3d7c40e2	0.061585315
90	0x3d3564d3	0.044285607
91	0x3e083875	0.13302787
92	0x3be3e0df	0.006954297
93	0x3e95c117	0.29248878
94	0x3e40038a	0.1875135
95	0xbc3dec00	-0.011591911
96	0x3c68e82a	0.0142155085
97	0x3e06e0cb	0.13171689
98	0xbca4f3b9	-0.020135747
99	0x3c94aab3	0.018147802
100	0x3e062fa6	0.13104114
101	0x3e285dc2	0.16442016
102	0xbd3d1635	-0.046163756
103	0xbd97a4cc	-0.074044794
104	0x3d85396e	0.065050945
105	0xbd156c69	-0.03648034
106	0xbd6dab93	-0.058024954
107	0x3d56e70d	0.05246644
108	0xbcecab7c	-0.028890364
109	0x3e20a6e8	0.1568867
110	0x3e86d6f2	0.26335865
111	0x3c647c44	0.013945643
112	0x3dedfd9d	0.116206385
113	0xbc67dcaa	-0.0141517315
114	0x3ddabcbe	0.10680531
115	0x3dadabb7	0.08480018
116	0x3d87f7d4	0.06639066
117	0xbda083c3	-0.078376316
118	0x3d588c6b	0.052868288
119	0x3d9e42ce	0.07727586
120	0x3c0b6bc9	0.008509585
121	0x3dbcfcf0	0.092279315
122	0x3e00be4c	0.12572592
123	0xbd1ddfd2	-0.03854353
124	0x3e00cd57	0.12578331
125	0x3d2937df	0.04131305
126	0x3deaef70	0.1147145
127	0x3d5ea075	0.054352242
128	0x3cb6b6e2	0.022304002
129	0x3d05ef33	0.03269882
130	0xbd7a2a97	-0.061075773
131	0x3e01f9ff	0.12693022
132	0x3c43f98a	0.01196135
133	0x3e090038	0.1337899
134	0x3de4904a	0.111603335
135	0x3c74424b	0.014908384
136	0x3deddc43	0.11614277
137	0x3d9844c1	0.07434989
138	0x3def66c0	0.1168952
139	0x3d60f18f	0.05491787
140	0x3e110194	0.14160758
141	0xbbdbbe21	-0.0067060147
142	0x3b586e6d	0.0033024803
143	0xbd27e43f	-0.040989157
144	0xbd131fbf	-0.035918947
145	0x3db2664c	0.08710918
146	0x3e43c1c1	0.1911688
147	0xbc774ab3	-0.015093493
148	0x3d9b4489	0.075814314
149	0xbd779aa5	-0.060450215
150	0xbcd0bae9	-0.02547975
151	0x3e65c066	0.22436675
152	0x3dd08311	0.10181249
153	0x3b71e56b	0.0036910425
154	0x3de184b9	0.11011643
155	0x3ddb6434	0.107124716
156	0x3de66dd1	0.112514146
157	0x3cd575e0	0.026057184
158	0x3dd08016	0.101806805
159	0x3da1668f	0.078808896
160	0x3da73d79	0.08166022
161	0xbd7b5bd7	-0.061366882
162	0x3d749205	0.059709568
163	0x3e0aff5f	0.13573979
164	0x3d2fa491	0.042881552
165	0xbcb92ae9	-0.022603469
166	0x3dfd2bbf	0.123618595
167	0x3d0cdf90	0.034392893
168	0x3d365bf0	0.044521272
169	0x3d768369	0.060183916
170	0xbceb0969	-0.02869101
171	0x3e408d5a	0.18803921
172	0x3dd222d8	0.10260552
173	0xbd65e2db	-0.05612455
174	0x3c1fe0f8	0.009758227
175	0x3e0365da	0.12831822
176	0xbcd0cf60	-0.02548951
177	0x3dc49f09	0.09600646
178	0xbd3dcb9e	-0.046336763
179	0xbc97c5bf	-0.01852691
180	0x3deb5acb	0.11491927
181	0x3b136e66	0.0022496223
182	0x3c8c7683	0.017146355
183	0x3bb96f88	0.0056590475
184	0x3e3f9fbb	0.18713276
185	0xbd4bed5f	-0.04978692
186	0xbd329b21	-0.043604974
187	0xbc5a6ad7	-0.013331137
188	0xbc2d8ef2	-0.010593163
189	0x3d05a1c7	0.032624986
190	0x3dd610c5	0.10452417
191	0x3d4c143b	0.04982398
192	0x3deba739	0.115065046
193	0x3dde1821	0.10844446
194	0x3dc5cf86	0.096587226
195	0x3bdf4f62	0.006814883
196	0x3defc706	0.117078826
197	0x3e0e3602	0.1388779
198	0x3c47cfc9	0.012195536
199	0x3e080a2b	0.13285129
200	0x3d08f542	0.03343702
201	0x3bc99701	0.0061520343
202	0x3dbd907c	0.09256074
203	0x3c743a6d	0.014906508
204	0xbdd682fa	-0.104742005
205	0xbd9fcf08	-0.0780316
206	0x3d78b31c	0.060717687
207	0x3d405621	0.04695714
208	0xbcf06deb	-0.029349288
209	0x3da0f05d	0.07858346
210	0x3de7170b	0.11283692
211	0x3d7b6bce	0.061382107
212	0x3deb8c42	0.115013614
213	0xbd179263	-0.03700484
214	0xbd9386b6	-0.072034284
215	0x3df8c05d	0.121460654
216	0x3d932f5d	0.07186768
217	0x3dcc56a8	0.09977466
218	0xbe33eded	-0.1757123
219	0xbd14b7db	-0.03630815
220	0x3d6f28fe	0.058388703
221	0x3e4ef269	0.2020966
222	0xbd2c0498	-0.04199657
223	0x3e0286f6	0.12746796
224	0x3cfbf914	0.030758418
225	0xbe0f6030	-0.14001536
226	0x3c0d8cbf	0.0086395135
227	0x3dde7c63	0.10863569
228	0x3ccc2bf1	0.024923297
229	0xbdd0d9cd	-0.10197792
230	0xbe0ad813	-0.13558988
231	0x3da46898	0.08027762
232	0x3ea0a977	0.3137929
233	0x3d1edf23	0.03878702
234	0xbe00e882	-0.12588695
235	0xbe087c6e	-0.13328716
236	0x3d912cb0	0.070886016
237	0xbe0e75b5	-0.13912089
238	0x3e2159ca	0.15756908
239	0xbd8c5edb	-0.0685403
240	0x3db5100c	0.08840951
241	0xbda5fae0	-0.08104491
242	0xbe1fae7a	-0.15593901
243	0x3d578982	0.052621372
244	0x3dda8712	0.10670294
245	0x3cdb167d	0.026744122
246	0xbde7b95b	-0.113146506
247	0xbb96cda0	-0.004602149
248	0xbe1412da	-0.14460316
249	0x3de8dee6	0.113706395
250	0xbb945c00	-0.004527569
251	0x3e7905e2	0.2431865
252	0x3d1ab889	0.037773643
253	0x3e371fe3	0.17883258
254	0xbdb0e53a	-0.086374715
255	0xbdf74ae8	-0.12074834

lstm.weight_ih_l1 f4 [400, 100]
0	0x3dbe1d9c	0.09282991
1	0x3d81fda9	0.0634721
2	0xbb6eac6f	-0.0036418696
3	0xbdae0822	-0.08497645
4	0xbd8e67e1	-0.06953407
5	0xbd636a40	-0.05552125
6	0x3db03d0d	0.086053945
7	0xbd87fa0d	-0.0663949
8	0x3cb70a92	0.022343908
9	0x3d235210	0.039873183
10	0x3d9ff518	0.0781042
11	0x3da635eb	0.08115753
12	0x3d753ccc	0.059872434
13	0xbb8f5a62	-0.004374788
14	0xba435f24	-0.0007452837
15	0x3d3b896b	0.04578535
16	0x3cc40805	0.023929605
17	0xbc07f6fe	-0.008298634
18	0xbc13672b	-0.008996765
19	0xbd0dfbae	-0.03466385
20	0x3d8cdea2	0.06878401
21	0xbd8246dd	-0.06361172
22	0xbd94abbe	-0.0725932
23	0x3c850856	0.016239326
24	0x3db05829	0.08610565
25	0xbdadcb38	-0.084860265
26	0xbd166b04	-0.03672315
27	0xbd54d5ce	-0.051961713
28	0xbdb38707	-0.08765989
29	0x3da86726	0.08222799
30	0xbd65f819	-0.056144807
31	0xbc9b374c	-0.018947266
32	0xbdb2d1f4	-0.08731452
33	0xbc62e71c	-0.013849046
34	0xbd5725e8	-0.052526385
35	0xbc296e6b	-0.010341267
36	0x3bcabd66	0.006187129
37	0x3cf6c278	0.030122027
38	0xbd8c3792	-0.06846537
39	0xbd60b7b9	-0.05486271
40	0x3d7082a5	0.058718342
41	0x3dc00c31	0.09377325
42	0x3d89eee1	0.06735016
43	0x3d6e5575	0.058186967
44	0xbd3c5e96	-0.04598864
45	0xbcdc85f6	-0.026919346
46	0xbd81596f	-0.06315886
47	0xbd4299cb	-0.04750995
48	0xbd7f02c8	-0.06225851
49	0x3d8cedca	0.06881292
50	0x3cbfd10d	0.023415113
51	0x3dcf0034	0.101074606
52	0xbdd0f291	-0.10202516
53	0x3dc56185	0.09637741
54	0x3d8ed7a9	0.06974728
55	0xbd94a0f8	-0.07257265
56	0xbd9714fb	-0.073770486
57	0xbd674081	-0.056458
58	0xbd28bc78	-0.041195363
59	0x3d3e380a	0.04644016
60	0xbcb6c632	-0.022311304
61	0x3d29f19a	0.041490175
62	0xbc86bcce	-0.016447451
63	0xbdc83965	-0.09776572
64	0x3c0f099d	0.008730319
65	0xbc6ff4b0	-0.01464574
66	0xbc268348	-0.010163136
67	0xbdd16212	-0.102237836
68	0xbd1c1122	-0.038102277
69	0xbc91c219	-0.017792748
70	0x3dc62ad1	0.09676135
71	0xbc44ee76	-0.012019744
72	0xbd068236	-0.032839023
73	0x3db39267	0.087681584
74	0x3c8790d2	0.016548548
75	0x3d15f74b	0.03661279
76	0xbd32c0dd	-0.04364096
77	0x3c4ff2a5	0.012692128
78	0x3d9b37db	0.07579013
79	0xbc8561e2	-0.016282026
80	0xbd29111e	-0.04127609
81	0xbdbe3ea1	-0.09289289
82	0xbd4cd4dc	-0.050007686
83	0x3d9d4912	0.07679953
84	0x3d682c96	0.056683145
85	0x3d8afc1b	0.067863666
86	0x3db929c6	0.09041171
87	0xbdafb83d	-0.085800625
88	0x3d1c1bfe	0.038112633
89	0x3c31a8cb	0.010843466
90	0x3bbb3027	0.0057125273
91	0xbd966bf8	-0.07344812
92	0xbd6023df	-0.05472171
93	0xbd843b93	-0.064566754
94	0xbd5fcc60	-0.054638267
95	0xbdc4916c	-0.095980495
96	0x3db2e1cf	0.08734476
97	0x3d004981	0.0313201
98	0x3d03a013	0.03213508
99	0xbd10d66e	-0.035360746
100	0xbbe7cce7	-0.007073987
101	0xbc227bc9	-0.009917208
102	0x3c881c4f	0.016615061
103	0x3d6ab3b2	0.057300277
104	0x3cada6a1	0.021197619
105	0xba842e59	-0.0010084613
106	0xbd975f33	-0.07391205
107	0xbd9e9a0a	-0.07744224
108	0xbc0443b5	-0.008072783
109	0x3d771d1e	0.060330503
110	0xbae853dc	-0.0017725187
111	0x3dcc5772	0.09977616
112	0xbd847c8c	-0.06469068
113	0x3db8de55	0.090267815
114	0xbd7312b4	-0.05934401
115	0x3c15b99a	0.009138489
116	0x3d77c76b	0.060492914
117	0xbd5656d3	-0.052328896
118	0x3d2ce42a	0.04220978
119	0xbccdc9b9	-0.025120603
120	0xbdfa7566	-0.12229423
121	0x3d56fc3b	0.05248664
122	0x3d4a42cd	0.049380112
123	0x3dcdf97f	0.10057353
124	0x3da422b6	0.08014433
125	0xbe0697c7	-0.13143836
126	0x3d96f4f2	0.07370938
127	0xbdc1e625	-0.09467725
128	0xbdd7052c	-0.10499033
129	0xbdc2dff2	-0.095153704
130	0x3d4bd6ae	0.04976528
131	0xbe08fb2a	-0.13377061
132	0x3d9efd0a	0.07763107
133	0x3d5586d0	0.05213052
134	0x3c244e6d	0.010028464
135	0x3d8b660f	0.068065755
136	0x3dbb2c8c	0.09139356
137	0x3d96ee22	0.07369639
138	0x3d279add	0.040919174
139	0x3cb8806a	0.02252217
140	0xbd8c3f24	-0.068479806
141	0xbd66246b	-0.056187075
142	0xbcc80945	-0.024418483
143	0xbc54ada6	-0.012980854
144	0x3db03bc8	0.08605152
145	0xbd40f3bd	-0.047107447
146	0xbcba1da3	-0.02271921
147	0x3c8fccf7	0.01755379
148	0x3de0f884	0.109849006
149	0x3d980014	0.0742189
150	0x3c93621d	0.01799112
151	0xbd3c58c3	-0.045983087
152	0x3d7c8477	0.061649766
153	0x3c85fd47	0.016356124
154	0x3c87d104	0.016579159
155	0x3d2606b3	0.040533733
156	0xbd8de618	-0.069286525
157	0xbc12baa7	-0.008955634
158	0x3db41e24	0.08794811
159	0x3b52407c	0.0032081893
160	0xbdabc656	-0.08387439
161	0x3c6813ce	0.014164878
162	0x3d17a750	0.037024796
163	0x3d2e82c9	0.042605195
164	0x3cb3e499	0.02195959
165	0x3d8139a3	0.063098215
166	0xbd4bb0b1	-0.049729053
167	0x3c889e7e	0.016677137
168	0x3d06ddab	0.032926243
169	0xbd25a800	-0.04044342
170	0x3d340444	0.04394938
171	0xbbab5241	-0.0052283113
172	0x3d0d1031	0.03443927
173	0xbdb01f40	-0.085997105
174	0xbd98e1a1	-0.0746491
175	0x3da4f566	0.080546185
176	0xbd4005e8	-0.046880633
177	0xbd1b63f7	-0.03793713
178	0xbc58955a	-0.013219202
179	0xbd9a2d92	-0.07528223
180	0x3d9470b1	0.07248057
181	0xbc16196c	-0.0091613345
182	0x3c9f711f	0.01946312
183	0x3d1e3740	0.03862691
184	0x3d4fbb4a	0.050715722
185	0xbd818534	-0.063242346
186	0xbd53a728	-0.051673084
187	0x3d02b749	0.031913076
188	0x3e01313a	0.12616435
189	0xbdd1e89f	-0.10249447
190	0x3d3b1700	0.04567623
191	0x3b8ffed4	0.0043943916
192	0xbcebd9c6	-0.028790366
193	0xbd292055	-0.0412906
194	0x3dcbea12	0.09956755
195	0xbdc57e54	-0.09643236
196	0xbd4eb124	-0.050461903
197	0x3bbd295d	0.005772753
198	0x3a854e4f	0.0010170433
199	0xbd1d9b4c	-0.03847818
200	0x3c55a4be	0.013039766
201	0xbd8e8ea1	-0.06960798
202	0xbca0026f	-0.01953241
203	0xbcd38e95	-0.025824824
204	0x3dab92ea	0.08377631
205	0xbbc8a962	-0.0061237076
206	0xbd338a4b	-0.04383306
207	0xbd7ca482	-0.061680324
208	0xbd0ce5bf	-0.03439879
209	0xbd93a22b	-0.072086655
210	0x3abc8bbf	0.0014384909
211	0xbc9e62d3	-0.019334232
212	0x3d13aa15	0.036050875
213	0x3d3ff25c	0.04686199
214	0x3da9aad9	0.0828454
215	0xbd344b7d	-0.044017304
216	0xbdad39b6	-0.08458273
217	0xbd9d9c98	-0.076958835
218	0xbd639828	-0.05556503
219	0x348c1697	2.6093468e-07
220	0x3c7ad8a7	0.015310443
221	0xbd1b766c	-0.037954733
222	0xbd658453	-0.056034397
223	0xbd26ee37	-0.040754523
224	0x3d90d7c4	0.07072404
225	0x3d674c0e	0.056469016
226	0xbda6d8bc	-0.081468076
227	0x3d830421	0.06397272
228	0xbc96caea	-0.018407304
229	0x3d7ed40a	0.062213935
230	0x3d80161f	0.06254219
231	0x3d932039	0.0718388
232	0x3d5577a6	0.05211606
233	0x3d95c517	0.073129825
234	0x3c278cf6	0.010226479
235	0x3d606d7e	0.05479192
236	0x3b30bb2a	0.0026967027
237	0xbd9cf949	-0.07664735
238	0xbd7bbd2c	-0.061459705
239	0xbda51efc	-0.080625504
240	0x3d5324c8	0.05154875
241	0xbda187f3	-0.078872584
242	0xbd7a8eca	-0.06117133
243	0x3dc1104e	0.09426938
244	0xbc07b5aa	-0.008283058
245	0x3dc283cf	0.09497797
246	0x3d10244f	0.035190877
247	0xb85ae42c	-5.2187752e-05
248	0xbcfebbc7	-0.031095399
249	0x3d0d608c	0.034515902
250	0xbd434438	-0.04767248
251	0xbdbbc171	-0.091677554
252	0xbc00e671	-0.0078674415
253	0x3d60b491	0.0548597
254	0x3d4fd8fc	0.05074404
255	0xbd499767	-0.049216654

lstm.weight_hh_l1 f4 [400, 100]
0	0xbdb682ef	-0.08911692
1	0x3c8b37dc	0.01699441
2	0x3c2ea0a2	0.010658415
3	0xbd9ded32	-0.07711257
4	0xbd682fa3	-0.056686055
5	0x3c325014	0.01088335
6	0x3db1ab14	0.08675209
7	0x3d8a3723	0.06748798
8	0xbda06c5b	-0.07833167
9	0x3c5d3bbe	0.013503013
10	0xbdba7c24	-0.09105709
11	0xbca2c0df	-0.019867359
12	0xbd6bd22f	-0.057573494
13	0x3db045ec	0.086070865
14	0xbd893a57	-0.067005806
15	0x3bfe160b	0.0077540926
16	0x3daef3cc	0.08542594
17	0xbda592b0	-0.08084619
18	0xbd9e17a4	-0.07719353
19	0xbd33ee75	-0.043928582
20	0x3d50c08a	0.05096487
21	0xbde11adf	-0.109914534
22	0x3d989dfe	0.074520096
23	0xbd21180b	-0.03932957
24	0xbd1ca6bf	-0.03824496
25	0x3db0286f	0.08601462
26	0x3d6999df	0.05703151
27	0x3d8528ae	0.065019
28	0x3d818694	0.06324497
29	0x3aa4e131	0.0012579319
30	0x3d783437	0.06059667
31	0x3d0344af	0.032047924
32	0xbc4712c8	-0.012150474
33	0xbda5530d	-0.08072481
34	0x3d886085	0.06659035
35	0xbc0a7b4e	-0.00845225
36	0x3c09e3ac	0.008416098
37	0x3d015f40	0.031584978
38	0x3ccd087d	0.025028462
39	0x3dcf97a5	0.10136346
40	0x3d8e8bc9	0.06960256
41	0x3d068d15	0.03284939
42	0x3c8b6ea3	0.01702053
43	0xbd0a2eff	-0.033736225
44	0x3d4f4a53	0.05060799
45	0x3db33ad4	0.08751455
46	0x3cc88d59	0.024481462
47	0x3da65937	0.08122485
48	0x3bbaba31	0.0056984653
49	0x3d2c9a70	0.04213947
50	0x3ce6080e	0.028080013
51	0xba5c1141	-0.0008394905
52	0x3db73d7d	0.08947275
53	0x3dd258f5	0.102708735
54	0xbdaacab6	-0.08339445
55	0x3db8fd9f	0.090327494
56	0x3c8f06cd	0.017459298
57	0x3c10561c	0.008809593
58	0xbda59fc3	-0.08087113
59	0x3d8c1a36	0.06840937
60	0xbdbe866a	-0.09302981
61	0x3d39b158	0.045335144
62	0x3bc42d7e	0.0059868684
63	0xbd962df0	-0.07332981
64	0x3d168fe0	0.036758304
65	0xbd8d95d1	-0.06913341
66	0xbd7ba9b0	-0.061441123
67	0x3daaee72	0.08346261
68	0xbd8c81a1	-0.06860662
69	0xbd878369	-0.066168614
70	0xbd81740e	-0.06320964
71	0xbdaad0f7	-0.08340638
72	0x3be5899f	0.007004931
73	0xbd2c422a	-0.042055286
74	0x3afa8fb4	0.0019116313
75	0xbd9e7db3	-0.07738819
76	0x3d36c29d	0.04461919
77	0xbc28728c	-0.010281216
78	0xbdda6c14	-0.106651455
79	0x3d91b683	0.071148895
80	0x3b5bb9cd	0.0033527494
81	0xbdaecab7	-0.085347585
82	0xbc1612ae	-0.009159727
83	0x3b040875	0.0020146642
84	0xbd814c11	-0.06313337
85	0xbdca0ce3	-0.09865739
86	0xbcfc6fbc	-0.030814998
87	0xbd91ba92	-0.071156636
88	0x3cae87cf	0.021304993
89	0x3d122ced	0.035687376
90	0x3db6f498	0.08933371
91	0xbd3bc0ed	-0.045838285
92	0x3d520852	0.051277466
93	0x3d027daa	0.031858124
94	0xbd8bb1f8	-0.06821054
95	0xbcd4f611	-0.02599624
96	0x3dbdd59c	0.092692584
97	0x3c8bc9bd	0.01706397
98	0xbd9c6582	-0.076365486
99	0xbccbcc16	-0.02487759
100	0x3d954bdb	0.07289859
101	0xbc6067bd	-0.013696608
102	0xbd9427ed	-0.07234178
103	0xbcdf854e	-0.027285244
104	0x3dae5a0d	0.085132696
105	0x3d45d392	0.048297472
106	0x3dbf39ac	0.09337172
107	0x3d155e42	0.036466844
108	0xbdda9d16	-0.10674493
109	0x3dc228d4	0.094804436
110	0xbc534bd6	-0.012896499
111	0x3dc022b4	0.09381619
112	0xbcf33877	-0.02969001
113	0xbd08502e	-0.03327959
114	0x3df5a6b2	0.11994685
115	0xbd0b3853	-0.03398926
116	0x3e1c7ea3	0.15282683
117	0x3b2420ef	0.0025044044
118	0x3d1c9306	0.03822615
119	0xbc3448f3	-0.011003721
120	0x3c43b5f2	0.011945235
121	0xbd18b768	-0.037284285
122	0x3c0f0343	0.008728805
123	0xbcb788f7	-0.022404177
124	0x3e076404	0.13221747
125	0xbcdcc031	-0.026947113
126	0xbdb03250	-0.08603346
127	0x3ce95017	0.028480573
128	0x3c2835a0	0.010266691
129	0xbc42d5e7	-0.011891819
130	0xbcd36280	-0.025803804
131	0x3d958542	0.073008075
132	0x3d6d83a1	0.05798686
133	0xbd2d8e96	-0.04237231
134	0x3ba01376	0.0048851324
135	0x3ce653b7	0.02811609
136	0x3deb9876	0.11503689
137	0x3d1b43dd	0.037906516
138	0xbd48bc60	-0.049007773
139	0x3c866cb3	0.016409254
140	0xbd1f5f73	-0.038909387
141	0x3dd6c4c8	0.10486752
142	0x3db777d2	0.08958401
143	0x3d94df9b	0.07269212
144	0xbdc78311	-0.09741796
145	0x3c797af0	0.0152270645
146	0x3cc15b21	0.023603024
147	0x3d9dcab2	0.07704677
148	0xbddde82f	-0.10835301
149	0x3dbe3a83	0.09288504
150	0x3d1b3103	0.037888538
151	0x3d196576	0.037450276
152	0xbd14b8aa	-0.036308922
153	0xbd040365	-0.0322298
154	0x3b0962dc	0.0020963466
155	0x3d5ff36e	0.054675512
156	0xbdc2db61	-0.095144995
157	0x3dc739b9	0.097278066
158	0x3d039888	0.032127887
159	0xbd98b2eb	-0.07456001
160	0xbc57e71e	-0.013177661
161	0xbd37f530	-0.044911563
162	0x3d9e5c28	0.07732421
163	0x3cb13815	0.021633187
164	0x3d0f769a	0.035025217
165	0x3bbc5be7	0.0057482603
166	0x3d203fc2	0.039123304
167	0xbe128eac	-0.14312238
168	0xbb708e71	-0.0036705995
169	0x3dcf54c3	0.10123589
170	0x3d05c210	0.032655776
171	0x3dd46e92	0.10372652
172	0x3dd715a9	0.10502178
173	0x3dc82d13	0.09774222
174	0xbcccf5ea	-0.025019605
175	0x3da4f3c1	0.08054305
176	0xbdd8d824	-0.105881006
177	0x3dafa064	0.08575514
178	0x3d1c271f	0.038123246
179	0x3df9b2bb	0.12192293
180	0xbceaff39	-0.028686153
181	0x3bd187f7	0.006394382
182	0xbd1a473a	-0.037665583
183	0x3df21b28	0.11821586
184	0xbd97268b	-0.07380398
185	0xbdd193d3	-0.10233273
186	0x3c5b8693	0.013398784
187	0xbdf1cdba	-0.11806817
188	0xbdb0f9d3	-0.086414
189	0xbe1384af	-0.14406084
190	0x3d1aef2b	0.037825745
191	0xbdd84709	-0.10560424
192	0x3cd6a69a	0.026202489
193	0xbdfa26e3	-0.12214448
194	0xbdf32e1f	-0.11874031
195	0xbd8861d6	-0.06659286
196	0xbda22615	-0.0791742
197	0x3da7faae	0.0820211
198	0xbd5fbed5	-0.05462535
199	0x3cd3d1ac	0.025856815
200	0xbc66ae93	-0.014079708
201	0x3ca8bdf0	0.020598382
202	0xbd66dfee	-0.0563659
203	0x3d0b767d	0.034048546
204	0xbd617abc	-0.05504869
205	0x3dbddd91	0.09270776
206	0xbd72eb6e	-0.059306554
207	0xbd8562d9	-0.06512994
208	0x3d85778d	0.06516943
209	0x3d977e96	0.07397191
210	0xbdd51189	-0.10403735
211	0xbc7be8f6	-0.015375366
212	0xbd791a12	-0.06081588
213	0x3da75a3d	0.081715085
214	0x3d2441d8	0.040101856
215	0x3d47228d	0.048616935
216	0xbd7cf14b	-0.061753552
217	0x3d82a254	0.06378618
218	0xbd455ed8	-0.048186153
219	0x3d8b0521	0.06788088
220	0xbd91c403	-0.071174644
221	0xb9fa501a	-0.00047743396
222	0xbbe8694f	-0.007092632
223	0xbcb625f8	-0.022234902
224	0x3c1164aa	0.008874098
225	0xbd5964ac	-0.053074524
226	0xbcfbdeb9	-0.03074585
227	0xbd83dfca	-0.06439169
228	0x3dc84cb9	0.09780259
229	0xbdb58fd1	-0.088653214
230	0xbd72f9e2	-0.059320338
231	0x3d60fecc	0.054930493
232	0x3dcf075f	0.10108828
233	0xbc8e9e7d	-0.017409557
234	0xbd811839	-0.06303448
235	0xbd410c02	-0.047130592
236	0xbcad2ba7	-0.02113898
237	0x3d5d999d	0.054101575
238	0xbd9f3e3a	-0.07775541
239	0xbcdcc575	-0.026949624
240	0x3d9cbdc2	0.07653381
241	0x3b9c7cc3	0.004775615
242	0xbd9752a1	-0.07388807
243	0x3dca1389	0.09867007
244	0x3a6952c0	0.00089005753
245	0xbd80b6f2	-0.06284894
246	0x3daee81d	0.08540366
247	0xbd8a75b1	-0.06760729
248	0x3ba47014	0.0050182436
249	0xbc5496a0	-0.012975365
250	0xbccf9986	-0.02534176
251	0xbc8a1572	-0.016855929
252	0x3d64d6e4	0.055869
253	0xbdc24e01	-0.09487534
254	0x3d806c11	0.06270612
255	0x3dd6d761	0.10490299

lstm.bias_ih_l1 f4 [400]
0	0x3dacdf56	0.084410354
1	0x3e48d87c	0.19613832
2	0xbb42a61a	-0.0029701055
3	0xbd20b5d6	-0.039235912
4	0x3dc30140	0.09521723
5	0x3dca869f	0.09888958
6	0x3c9f1ab4	0.019421913
7	0x3d3c8459	0.046024654
8	0x3e3813d4	0.17976314
9	0x3e05a440	0.13050938
10	0x3d076730	0.03305739
11	0x3d843028	0.064544976
12	0x3e07fc70	0.13279891
13	0xbd64345d	-0.055714
14	0x3e09494a	0.13406864
15	0xbc9c536f	-0.019082753
16	0x3e355851	0.17709471
17	0x3e084325	0.13306864
18	0x3dd00e9b	0.10159036
19	0xbd2be969	-0.041970644
20	0x3d8127fa	0.06306453
21	0x3e1bf85d	0.15231462
22	0x3dae30e6	0.085054204
23	0x3e067f7c	0.13134569
24	0x3e0bb83f	0.13644503
25	0x3e074788	0.13210881
26	0x3d4df179	0.050279114
27	0x3da7e643	0.08198216
28	0x3d960045	0.0732427
29	0x3d0cba80	0.034357548
30	0x3e077d8b	0.13231485
31	0x3e2581a9	0.16162743
32	0x3cac6d61	0.02104825
33	0x3d705a4a	0.058679856
34	0x3d6d641e	0.057956807
35	0xbc004887	-0.007829792
36	0x3d92a4c1	0.071603306
37	0x3dd0c187	0.101931624
38	0x3d449646	0.047994874
39	0x3d55509d	0.052078832
40	0x3e7a362f	0.24434732
41	0x3d4f47bd	0.050605524
42	0x3e1bc70c	0.15212649
43	0x3d1aa79b	0.037757497
44	0x3e0b5218	0.13605535
45	0x3d8615a1	0.06547094
46	0xbcfded13	-0.030996835
47	0x3c473957	0.012159667
48	0x3d84bec5	0.06481699
49	0x3bf7f36e	0.007566861
50	0x3e140017	0.1445316
51	0x3e20b85e	0.1569533
52	0x3e3232ca	0.17402187
53	0x3df3c685	0.11903099
54	0x3d831a2b	0.064014755
55	0x3d49c8bc	0.0492637
56	0x3dba9c89	0.09111888
57	0x3dd8f86e	0.10594259
58	0x3d45eb27	0.048319962
59	0x3dfa1087	0.122101836
60	0x3df89a12	0.121387616
61	0x3e4a84e7	0.1977726
62	0xbc9efa55	-0.019406477
63	0xbd3cd78f	-0.04610401
64	0x3dd3abbd	0.10335491
65	0x3d81494d	0.06312809
66	0x3d800174	0.06250277
67	0xbc38d50a	-0.011281261
68	0xbc4b0750	-0.01239188
69	0x3e14fd89	0.14549841
70	0x3d066122	0.032807477
71	0x3e0854ea	0.13313642
72	0x3d2e7050	0.04258758
73	0x3d8bbac4	0.06822732
74	0x3e0e5d89	0.13902868
75	0x3d88863e	0.0666623
76	0xbce28848	-0.027652875
77	0x3dbee7da	0.09321566
78	0x3d83db3c	0.064383
79	0x3d88c470	0.066780925
80	0x3d8a4919	0.067522235
81	0xbd48a20c	-0.048982665
82	0xbb3e3ba9	-0.002902726
83	0xbc1cb8da	-0.009565556
84	0x3ca483de	0.02008241
85	0xbd30e5a8	-0.043187767
86	0xbcc21984	-0.023693807
87	0xbc698bfc	-0.014254566
88	0x3d0ae495	0.0339094
89	0x3e13f3d9	0.14448489
90	0x3e2ddeed	0.1697957
91	0x3e5947c4	0.21218783
92	0x3c9e488d	0.019321704
93	0xbcbeb102	-0.023277763
94	0x3e03b5fe	0.12862393
95	0xbb556de4	-0.003256672
96	0xbd851d23	-0.06499698
97	0x3e02e104	0.12781149
98	0x3de7acc4	0.11312249
99	0x3e3c0376	0.18360695
100	0x3dd3f95d	0.10350297
101	0x3e5133a4	0.20429856
102	0x3de0971b	0.10966321
103	0x3d967587	0.07346635
104	0x3dd610cc	0.104524225
105	0x3e38dfce	0.18054125
106	0x3da6bcaa	0.081414536
107	0x3e7ef2a5	0.24897249
108	0x3e83ec3e	0.25766176
109	0x3df92b68	0.12166482
110	0x3cd3d441	0.025858046
111	0x3e76e0dc	0.24109215
112	0x3dae2b4e	0.085043535
113	0xbd469fcb	-0.048492234
114	0xbc9b5c07	-0.01896478
115	0x3c4478ba	0.011991674
116	0x3da17ad6	0.07884757
117	0x3daf3742	0.085554615
118	0x3d91d47f	0.071206085
119	0x3d62fd83	0.05541755
120	0xbb7c194e	-0.0038467231
121	0x3e72d01e	0.23712203
122	0x3daa3284	0.08310416
123	0x3e9fb986	0.3119623
124	0x3be79dad	0.007068357
125	0x3dcf6af5	0.10127822
126	0x3df3ef0e	0.119108304
127	0x3dd8e487	0.10590463
128	0x3d0c65bb	0.034276705
129	0x3d33c30d	0.043887187
130	0x3dd0f627	0.102032
131	0x3d4abb63	0.049495112
132	0x3d4c80f8	0.04992768
133	0xbd1a1f6f	-0.037627634
134	0x3dc6dbab	0.09709867
135	0xbb65b643	-0.0035051263
136	0x3e85f369	0.2616227
137	0x3dda0cb9	0.10646958
138	0x3dabc440	0.08387041
139	0x3e363999	0.1779541
140	0x3e73ab0d	0.2379572
141	0x3dd2eef0	0.1029948
142	0x3e8e8b33	0.27840576
143	0x3e369b5b	0.17832701
144	0x3de173ca	0.11008413
145	0x3e5ccf9d	0.21563573
146	0x3d95bf0f	0.07311832
147	0x3e1d2ac0	0.15348339
148	0x3d99c993	0.0750915
149	0x3d3ac3df	0.045596953
150	0xbd40392c	-0.046929523
151	0x3e8eaa3c	0.27864254
152	0x3dd3fa78	0.103505075
153	0x3cfa1329	0.030526714
154	0x3cb0cc1f	0.021581708
155	0x3e2f624e	0.17127344
156	0x3e0c7418	0.13716161
157	0xbd124d79	-0.035718415
158	0x3dc12cd3	0.09432378
159	0x3e45c5ca	0.19313732
160	0x3d0933f0	0.033496797
161	0x3d20d790	0.039268076
162	0x3d9ff146	0.07809691
163	0x3dc617e6	0.09672527
164	0x3da9af3a	0.08285375
165	0xbd66aae2	-0.05631531
166	0x3d3da4b4	0.04629965
167	0xbd8435af	-0.06455552
168	0x3d753d36	0.05987283
169	0x3c5a2314	0.013314027
170	0x3dc9d91c	0.098558635
171	0x3e8995d1	0.26872113
172	0x3e7eeed4	0.24895793
173	0xbd0d2bb7	-0.034465518
174	0x3cc87d3c	0.024473779
175	0x3e4dcde6	0.20098075
176	0x3c26c07a	0.010177726
177	0x3e66911a	0.2251629
178	0x3e7a62e9	0.24451794
179	0x3e4018d5	0.18759473
180	0x3e17e117	0.14831959
181	0x3d927704	0.07151607
182	0x3e3e4e0d	0.18584462
183	0xbc7e154e	-0.015508009
184	0x3ddef8ee	0.10887323
185	0x3ca20a2f	0.019780247
186	0x3dcd6a46	0.10030036
187	0xbd7a2975	-0.061074693
188	0x3e0222ec	0.12708634
189	0x3b9c4ae7	0.0047696712
190	0x3c8b3d15	0.0169969
191	0x3e54f1a6	0.20795307
192	0xbc677b08	-0.014128454
193	0x3d9fd835	0.0780491
194	0x3e07e33e	0.1327028
195	0x3e1196a6	0.14217624
196	0x3ddc9f67	0.10772591
197	0x3e38fc66	0.18065032
198	0x3dccff95	0.10009686
199	0x3e4050d3	0.18780832
200	0xbd79abd6	-0.06095489
201	0xbe8a49c5	-0.27009407
202	0x3d86db5a	0.06584807
203	0x3c29f42a	0.010373155
204	0xbe3876c7	-0.1801406
205	0xbdb58856	-0.08863895
206	0x3d3e4792	0.046454974
207	0xbe547959	-0.20749415
208	0xbd0a1dfb	-0.033719998
209	0x3c50b1bc	0.012737688
210	0xbddafd47	-0.1069284
211	0xbe27e50e	-0.16395971
212	0x3dbaeaa0	0.091267824
213	0x3b8f8c06	0.0043807058
214	0x3db23bea	0.08702834
215	0x3cb48b91	0.022039207
216	0xbd76c7eb	-0.06024925
217	0xbe02cc4b	-0.12773244
218	0xbd896086	-0.067078635
219	0xbc6ff29d	-0.014645246
220	0xbe2010ec	-0.15631455
221	0xbcc03c6b	-0.02346631
222	0xbd2591b6	-0.040422164
223	0xbd3d21e7	-0.04617491
224	0x3d80dfa9	0.0629266
225	0x3d76e64f	0.060278233
226	0x3e0c3b5d	0.1369452
227	0x3d36ef85	0.044662017
228	0x3cb9e360	0.022691429
229	0xbd807a27	-0.06273299
230	0xbc87d2b0	-0.016579956
231	0x3d1c7ef1	0.038207
232	0x3d995173	0.07486238
233	0xbd90ed60	-0.07076526
234	0x3dc75c34	0.09734383
235	0xbe1661b6	-0.14685711
236	0x3de5dbb6	0.11223547
237	0x3bebd198	0.0071966164
238	0x3c949518	0.0181375
239	0x3cb750ac	0.022377335
240	0x3d0abb8b	0.03387026
241	0x38d74cfb	0.000102663376
242	0x3c0b574a	0.008504698
243	0xbc904030	-0.017608732
244	0x3d3ed164	0.04658641
245	0x3de9d32e	0.114172325
246	0xbddb39ac	-0.107043594
247	0x3d3a345b	0.045460086
248	0x3d9adf02	0.075620666
249	0xbd12cd06	-0.035840057
250	0xbdc96468	-0.09833604
251	0x3df715f8	0.12064737
252	0xbe2e018e	-0.1699278
253	0xbd9aeb8a	-0.07564457
254	0x3e1a5c2d	0.15074225
255	0x3db75fa3	0.08953788
