mnist_model.pkl (torch_old, 31964 bytes, 2 tensors)

linear.weight f4 [10, 784]
0	0xbc2f806a	-0.010711769
1	0xbced63b5	-0.028978208
2	0xbc58a738	-0.013223462
3	0xbcccf7a5	-0.02502043
4	0xbc2253ca	-0.009907672
5	0xbcdc0bf8	-0.026861176
6	0xbb44f580	-0.0030053556
7	0xbcd2f7d3	-0.025752937
8	0xbc587a3c	-0.013212737
9	0xbc36f8c6	-0.011167711
10	0xbcddf8a5	-0.027096102
11	0xbcff5f18	-0.031173274
12	0x3d00b1ef	0.03141969
13	0xbc1d6845	-0.009607379
14	0xbc4b4d4b	-0.012408565
15	0x3bfdf793	0.0077504604
16	0xbc59d68a	-0.013295779
17	0xba8d3ea0	-0.001077611
18	0x3d0963d5	0.033542473
19	0xbcb92730	-0.022601694
20	0xbc54d19c	-0.012989428
21	0x3d0f29e7	0.03495207
22	0x3cfb18ba	0.030651439
23	0xbce644ae	-0.02810892
24	0xbb009280	-0.001961857
25	0xbc1a7398	-0.009426974
26	0xbc0ae96a	-0.008478502
27	0xbc166c46	-0.009181088
28	0x3cd54a7c	0.026036493
29	0xbb879d10	-0.0041385964
30	0xbc9e27f5	-0.019306162
31	0xbc584586	-0.013200169
32	0x3c833c36	0.016019922
33	0x3c605a50	0.013693407
34	0xbbf93cda	-0.007606131
35	0x3c0f1a73	0.008734333
36	0xbc55f11f	-0.013057976
37	0xbb8a9ef0	-0.0042303726
38	0xbceedfd1	-0.029159458
39	0x3b591b61	0.0033127891
40	0xbc5dee60	-0.013545603
41	0x3cff4329	0.031159954
42	0x3d0a3b66	0.033748053
43	0x3c35b963	0.011091563
44	0xbcb5667e	-0.022143599
45	0xbb8f050a	-0.0043646144
46	0x3cab7237	0.020928485
47	0xbc60caec	-0.013720255
48	0x3b6e4de7	0.0036362351
49	0x3c17f60d	0.009274972
50	0x3d114a4f	0.035471257
51	0xbce818ec	-0.028332196
52	0x3d0e4881	0.034737114
53	0xbc08dbbc	-0.00835317
54	0xbc10ef2e	-0.008846087
55	0xbcddc028	-0.027069166
56	0x3b8c7370	0.004286222
57	0x3acc6400	0.0015593767
58	0xbd1117a8	-0.03542295
59	0x3d01aaee	0.031657152
60	0x3abdd651	0.0014483427
61	0xbca2c8af	-0.019871084
62	0xbcc4ba07	-0.024014486
63	0xbd107106	-0.035264038
64	0xbb325462	-0.002721094
65	0x3ca1e582	0.019762758
66	0x3ca8dc3b	0.020612827
67	0xbb4ae50c	-0.0030959276
68	0x3d0059ee	0.031335764
69	0xba4ed5a3	-0.0007890111
70	0x3c5522b0	0.013008758
71	0x37b3d9f4	2.1439955e-05
72	0x3bbd8d85	0.0057846927
73	0xbc3e3db0	-0.011611387
74	0xbcc84288	-0.024445787
75	0x3c9fadc8	0.019492045
76	0xbcb0a64d	-0.021563673
77	0xbc3a0825	-0.011354481
78	0x3b661a37	0.003511084
79	0x3bb34684	0.0054710526
80	0xbbba0b72	-0.005677634
81	0xbcae037b	-0.021241894
82	0xbceb4cc3	-0.028723126
83	0x3c1aa3d4	0.009438474
84	0xbcde2c3a	-0.027120698
85	0x3c5495a4	0.01297513
86	0xbc5fc6fc	-0.013658281
87	0x3b7463e4	0.0037290985
88	0xbb738b2f	-0.0037161817
89	0xbcb49b82	-0.022046808
90	0xbce84076	-0.02835105
91	0xbcdf80b1	-0.027283045
92	0xbb0755f9	-0.002065061
93	0x3c83ca0a	0.01608755
94	0x3cef2d98	0.029196545
95	0x3c82fc62	0.015989486
96	0x3b9f4eeb	0.0048617027
97	0xbce61623	-0.028086727
98	0x3c47cab8	0.012194328
99	0xbcedb89b	-0.02901869
100	0x3c84a86e	0.016193595
101	0xbcc0303f	-0.023460506
102	0xbd37fec1	-0.044920687
103	0xbba9bdcc	-0.0051800963
104	0xbcc2d6b8	-0.023784027
105	0xbbd5d6f4	-0.0065258685
106	0x3c8490ad	0.016182268
107	0xbd0af4ad	-0.033924747
108	0x3ce08d98	0.027411267
109	0xbc1901e8	-0.009338833
110	0x3ca434a4	0.020044632
111	0x3cd5dc60	0.02610606
112	0x3cc55efa	0.02409314
113	0xbceeacbd	-0.029135102
114	0x3cd1f7e9	0.025630908
115	0x3cdef99e	0.027218636
116	0x3d05f628	0.032705456
117	0xbc57542f	-0.0131426295
118	0x3ba85bc6	0.0051378934
119	0xbac84d85	-0.0015281892
120	0xb9c2395a	-0.00037045294
121	0x3b563984	0.003268809
122	0x3c2a7e8e	0.01040615
123	0x3cb822a8	0.022477463
124	0xbc7d5ac0	-0.015463531
125	0xbcfd844b	-0.030946871
126	0xbcd0554e	-0.025431301
127	0x3d22af8f	0.039718207
128	0x3d2f7ec4	0.042845502
129	0x3cebcf2a	0.028785307
130	0xbbc6e2d7	-0.006069522
131	0xbc0d55ec	-0.008626442
132	0x3cee3035	0.029075721
133	0x3cf205be	0.029543754
134	0xbcbcbd81	-0.023039581
135	0x3cc301c1	0.023804547
136	0x3cc799a7	0.02436526
137	0xbc17cd5f	-0.009265273
138	0xb919679c	-0.00014629815
139	0xbbfd275e	-0.00772564
140	0xbc997b27	-0.018735481
141	0xbc88bb67	-0.016690923
142	0x3cfad5df	0.03061956
143	0xbcfcec69	-0.030874448
144	0xbbebe545	-0.007198962
145	0x3c047651	0.008084849
146	0x39ae5f92	0.00033259072
147	0x3c8f8bf6	0.017522793
148	0x3bb0aa58	0.0053914003
149	0xbbbf9844	-0.005847009
150	0xbbd0588d	-0.0063582123
151	0x3c978318	0.018495128
152	0xbcd95e91	-0.02653435
153	0x3cfc6c09	0.030813234
154	0x3cc0f0b0	0.023552269
155	0x3c4eea63	0.012629124
156	0x3c7b487c	0.015337106
157	0x3d374d34	0.04475136
158	0xba8f9e87	-0.0010957279
159	0x3d3d6449	0.046238218
160	0x3bdf5ad6	0.0068162484
161	0x3c806f28	0.015678003
162	0x3cab376b	0.020900449
163	0x3ca3666c	0.0199463
164	0x3cac0294	0.020997323
165	0xbb3822ee	-0.0028096992
166	0xbc5867a2	-0.013208302
167	0xbc40ef78	-0.011775844
168	0xbcae037e	-0.0212419
169	0xbb869b33	-0.0041078567
170	0x3c430107	0.0119021
171	0xbcf1cfc2	-0.029518012
172	0x3cf2a350	0.02961889
173	0xbb3e7c7b	-0.0029065895
174	0xbcf92c93	-0.030416762
175	0xbc1ba215	-0.009499093
176	0x3bcee806	0.0063142804
177	0xbd43d99a	-0.047814943
178	0xbd33fd5e	-0.0439428
179	0xbd104dd0	-0.035230458
180	0x3cf8082c	0.030277334
181	0x3d1517d1	0.036399666
182	0x3d09ac12	0.033611365
183	0x3d557289	0.052111182
184	0x3cad97b4	0.021190502
185	0x3d284d11	0.04108912
186	0x3da55fe0	0.08074927
187	0xba1e7d8a	-0.00060459285
188	0x3d01f9b8	0.03173229
189	0xbcaf2d00	-0.021383762
190	0xbb35906b	-0.0027704488
191	0x3bcc605b	0.0062370724
192	0xbd144938	-0.03620264
193	0xbbcea28e	-0.006305999
194	0xbb30f643	-0.0027002252
195	0x3c073d6d	0.008254391
196	0xbc014e4e	-0.007892204
197	0x3cfda5e1	0.030962886
198	0x3d0c22a0	0.03421271
199	0x3cabee5d	0.020987684
200	0x3cc359ec	0.023846589
201	0xb9bcd462	-0.00036016392
202	0x3c9a7fcc	0.018859766
203	0xbd1605a0	-0.03662646
204	0xbc13a459	-0.0090113515
205	0xbcd4240b	-0.025896093
206	0xbd289c49	-0.04116467
207	0xbcdc9698	-0.026927277
208	0xbc9a8f66	-0.018867206
209	0x3d4aad20	0.04948151
210	0x3d42ffc9	0.047607217
211	0x3cbf27ee	0.02333447
212	0x3d8d5ab9	0.069020696
213	0x3d409cde	0.0470246
214	0x3d8128d2	0.06306614
215	0x3d4c8ba7	0.04993787
216	0x3d77fbe4	0.060542956
217	0x3cb685fe	0.02228069
218	0xbce590e4	-0.02802319
219	0x3c903d14	0.01760725
220	0xbc8f9669	-0.017527776
221	0xbd111fc4	-0.035430685
222	0x3cf5fda5	0.030028174
223	0xbc979d8e	-0.018507745
224	0xbb4d1504	-0.0031293044
225	0x3c98d3b7	0.018655641
226	0x3cd6a4db	0.026201656
227	0x3cde8428	0.027162626
228	0xbcbceb8e	-0.02306154
229	0xbd2c5b9f	-0.042079564
230	0xba402b49	-0.0007330669
231	0x3b24363c	0.002505674
232	0x3c7975ef	0.0152258715
233	0x3c5a165b	0.013310994
234	0x3c7489ad	0.014925403
235	0x3c13d423	0.009022745
236	0x3cbd9a8d	0.023144985
237	0x3d2a75e7	0.041616347
238	0x3d46e257	0.0485557
239	0x3d352db5	0.044233043
240	0xbbe856ec	-0.00709044
241	0x3d1567b8	0.036475867
242	0x3ce84a99	0.028355883
243	0x3d43eb41	0.047831777
244	0x3da098c9	0.078416415
245	0x3d3a43fa	0.045474984
246	0xbbeff802	-0.007323266
247	0x3c99338c	0.018701337
248	0x3cce73fe	0.025201794
249	0xbbeaa8f3	-0.0071612536
250	0xbccff315	-0.025384465
251	0x3d061852	0.032738037
252	0x3c88f7ca	0.016719718
253	0xbd0f7730	-0.035025775
254	0xbcf754e9	-0.030191856
255	0x3b82d991	0.003993221

linear.bias f4 [10]
0	0xbd94dca5	-0.07268647
1	0x3d9ec3b5	0.07752172
2	0xbd0baec2	-0.03410221
3	0xbc780ab7	-0.015139273
4	0x3d062881	0.03275347
5	0x3d29ca19	0.0414525
6	0xbc40189c	-0.011724617
7	0x3d81683e	0.06318711
8	0xbd8f5f62	-0.07000615
9	0x3c96dfe5	0.018417308
